contrastive_model.pth (torch, 14560 bytes, 4 tensors)

0.weight f4 [64, 15]
0	0x3e3915d8	0.18074739
1	0x3d6eae90	0.058271945
2	0xbdba6ef8	-0.09103197
3	0xbe2a841d	-0.1665196
4	0xbe5bc50c	-0.21461886
5	0x3dcab874	0.09898463
6	0x3e65dede	0.22448298
7	0xbe798b24	-0.24369484
8	0x3d167af8	0.036738366
9	0xbdf63608	-0.120220244
10	0xbd3e8d08	-0.046521217
11	0xbe344c5c	-0.17607254
12	0x3e1b9b7e	0.15196034
13	0xbe5d823a	-0.21631709
14	0x3dd292c4	0.102818996
15	0x3e6fa506	0.23402795
16	0x3ce81fd0	0.028335482
17	0x3e5b4b08	0.21415341
18	0xbe835b1f	-0.25655457
19	0x3d155a78	0.03646323
20	0x3db21c68	0.08696824
21	0xbc08c590	-0.008347884
22	0xbe7af4a5	-0.24507387
23	0x3d9b58f8	0.07585329
24	0x3e4f6a8c	0.20255488
25	0xbdab92cc	-0.08377609
26	0xbe58655d	-0.21132417
27	0x3dfe2934	0.124102026
28	0xbe40ba78	-0.18821132
29	0xbd6bf1ec	-0.05760376
30	0xbdf1272e	-0.11775051
31	0x3e238e98	0.15972364
32	0x3d77b3d0	0.060474217
33	0xbe24515e	-0.16046664
34	0xbdeb0712	-0.11475958
35	0x3e4e496c	0.20145196
36	0xbe4b2d8e	-0.19841596
37	0x3d5c3288	0.053759128
38	0x3bba2c00	0.0056815147
39	0xbe3f79ca	-0.18698803
40	0xbd5c55b4	-0.05379267
41	0xbe47a0ad	-0.19494887
42	0x3bad7440	0.005293399
43	0xbd98c8f4	-0.07460204
44	0xbe31dcec	-0.17369431
45	0x3e7d52ae	0.24738571
46	0xbe186b5d	-0.14884706
47	0x3e64e566	0.22353134
48	0x3e149a4c	0.14511985
49	0xbcc07910	-0.023495227
50	0xbe814181	-0.25245288
51	0xbe2e5b47	-0.17027007
52	0x3d95c8bc	0.07313678
53	0x3dfd9f70	0.12383926
54	0xbde7dff4	-0.113220125
55	0xbe5a9bee	-0.21348545
56	0x3e1137fe	0.14181516
57	0x3e290ef6	0.16509613
58	0xbe1defa8	-0.15423453
59	0x3e1b6b18	0.15177572
60	0xbe1c5f26	-0.15270671
61	0xbe61989f	-0.22030877
62	0x3deca610	0.115551114
63	0xbe2f89dc	-0.17142433
64	0xbd6bcc60	-0.057567954
65	0x3e2baf24	0.1676603
66	0x3e62c1a6	0.22144184
67	0x3e2a5bd2	0.16636589
68	0xbe7a62a8	-0.24451697
69	0xbe428dc8	-0.18999398
70	0xbe4f9efe	-0.20275494
71	0xbe745801	-0.23861696
72	0xbe57f3dc	-0.21089119
73	0xbe15c578	-0.1462611
74	0xbe62b230	-0.22138286
75	0x3daa8244	0.083256274
76	0xbe15d293	-0.14631109
77	0x3daed250	0.08536208
78	0x3e4905bc	0.19631094
79	0x3e01a164	0.12659222
80	0xbe7696fd	-0.24081035
81	0xbe18bdb6	-0.14916119
82	0x3e5f66fc	0.21816629
83	0xbe3c6d60	-0.18401098
84	0xbd017938	-0.031609744
85	0xbdd03eb2	-0.10168208
86	0xbe49aafd	-0.19694133
87	0x3da45d9c	0.08025667
88	0xbe3b681d	-0.18301435
89	0xbd467c30	-0.04845828
90	0x3e680a34	0.22660142
91	0xbc94d9a0	-0.018170178
92	0x3e1f3b56	0.15549979
93	0xbc8e00a8	-0.017334297
94	0x3dbf812c	0.093508095
95	0x3e37ad64	0.17937237
96	0x3e139b70	0.14414763
97	0x3cec5970	0.02885124
98	0xbcdcea68	-0.026967242
99	0xbdc66140	-0.09686518
100	0x3d038a98	0.032114595
101	0xbe283377	-0.16425882
102	0xbd979146	-0.074007556
103	0xbe7f6ba2	-0.24943402
104	0x3e6acbd2	0.22929314
105	0x3dec2f78	0.115324914
106	0x3e354ece	0.17705843
107	0xbda2c04c	-0.07946834
108	0x3e7eaeca	0.24871364
109	0xbdf005a8	-0.11719829
110	0xbe222e0b	-0.15837876
111	0xbcab2f00	-0.020896435
112	0xbda8ea74	-0.082478434
113	0xbe0ff408	-0.14057934
114	0x3e3b2620	0.18276262
115	0xbe7f41e1	-0.24927475
116	0x3df02910	0.11726582
117	0x3e5a4d02	0.21318439
118	0xbe7da8ac	-0.24771374
119	0xbde65ee6	-0.11248569
120	0xbe2cb9d0	-0.16867757
121	0xbd9fb00c	-0.0779725
122	0xbe6353ae	-0.2219989
123	0x3d0622d8	0.032748073
124	0x3d9a2654	0.07526842
125	0x3cfb9f10	0.030715495
126	0x3de2e2e8	0.11078435
127	0x3db12b2c	0.086508125
128	0xbdd08000	-0.10180664
129	0x3a9eea00	0.0012124181
130	0x3da40d00	0.08010292
131	0x3b04d800	0.0020270348
132	0x3de516dc	0.11186001
133	0xbe4f3678	-0.20235622
134	0xbba24980	-0.0049526095
135	0x3dff62bc	0.12470004
136	0x3e4aece6	0.19816932
137	0xbe6b20a2	-0.22961667
138	0xbe727ca7	-0.23680364
139	0xbdba3774	-0.09092608
140	0xbe2a2a5d	-0.16617723
141	0x3dd564a0	0.10419583
142	0x3d2158e8	0.03939143
143	0x3d9bf790	0.07615578
144	0x3ca83030	0.02053079
145	0x3e5ecf72	0.21758822
146	0xbd76fd4c	-0.060300156
147	0xbe24360a	-0.1603624
148	0x3e808001	0.2509766
149	0x3b857a80	0.004073441
150	0xbe12d45e	-0.14338824
151	0xbd7285d4	-0.05920966
152	0xbe02f0fc	-0.1278724
153	0x3e2d9998	0.16953123
154	0x3c103560	0.008801788
155	0x3e67896e	0.22611019
156	0xbe57f32a	-0.21088853
157	0x3dbd3cc8	0.09240109
158	0x3dbcf194	0.09225765
159	0x3e1ba116	0.15198168
160	0xbe81f731	-0.25383905
161	0xbda76728	-0.08173972
162	0xbe14ac44	-0.14518839
163	0xbe10d5e8	-0.14144099
164	0x3e1ddb20	0.15415621
165	0xbe513ab7	-0.20432554
166	0x3d6889f0	0.056772172
167	0x3e5402ca	0.20704189
168	0x3c91c140	0.017792344
169	0x3deff134	0.11715928
170	0x3e725c84	0.23668104
171	0x3da832c0	0.08212805
172	0x3e4fd652	0.202966
173	0xbe43c5be	-0.19118401
174	0x3e092400	0.13392639
175	0x3d5e58f0	0.054284036
176	0x3daa48b4	0.08314648
177	0xbe36d1c2	-0.17853454
178	0x3e04f3de	0.12983653
179	0x3ca36ec0	0.01995027
180	0xbbdcd600	-0.006739378
181	0xbe5b2b8e	-0.21403334
182	0xbe03469a	-0.12819901
183	0x3d227638	0.039663523
184	0x3df95744	0.12174848
185	0xbe8084a6	-0.25101203
186	0xbd150ecc	-0.036391065
187	0x3e4338fa	0.19064704
188	0x3dcd3f84	0.1002188
189	0xbdb04600	-0.086071014
190	0xbd8cf35c	-0.068823546
191	0x3e673322	0.225781
192	0xbcc176e0	-0.023616254
193	0xbdfd8baa	-0.123801544
194	0xbde3e5cc	-0.11127815
195	0x3e54c026	0.20776424
196	0xbe4bcf12	-0.1990321
197	0xbd954ca6	-0.0729001
198	0x3e6940d2	0.22778633
199	0x3e4b8998	0.19876707
200	0xbe774020	-0.24145555
201	0xbdded176	-0.10879795
202	0xbe467612	-0.19380978
203	0xbd040d04	-0.032238975
204	0xbe74467f	-0.23855017
205	0x3e053b90	0.13011003
206	0x3e4d32c4	0.20038897
207	0xbbac2ec0	-0.0052545965
208	0x3ce2f6e0	0.02770561
209	0xbe302d6c	-0.17204827
210	0xbd83f494	-0.06443134
211	0xbdb8ea1e	-0.09029029
212	0xbc59f0c0	-0.013302028
213	0x3df1e690	0.118115544
214	0xbdf02ee2	-0.11727692
215	0xbe124f90	-0.14288163
216	0xbe1b18f6	-0.1514624
217	0xbdd7787c	-0.105210274
218	0xbe403f0e	-0.18774053
219	0x3e76bfb8	0.24096572
220	0x3d8f451c	0.069956034
221	0x3e0e4168	0.13892138
222	0xbdff90d6	-0.12478797
223	0xbba521c0	-0.0050394237
224	0x3e0f408e	0.1398947
225	0x3e32c808	0.17459118
226	0x3d1e8500	0.038701057
227	0x3df9d308	0.12198454
228	0xbca74a18	-0.020421073
229	0x3da322ec	0.07965645
230	0xbe3cde5d	-0.184442
231	0x3e26cad0	0.16288304
232	0xbe14a176	-0.14514717
233	0xbe2be8a9	-0.16787972
234	0x3e255ea6	0.16149387
235	0x3e766fea	0.2406613
236	0xbe6fc899	-0.23416366
237	0x3e22b552	0.1588948
238	0xbe18da4c	-0.14927024
239	0x3e7ab0a6	0.24481449
240	0xbda1346e	-0.07871328
241	0xbe39084a	-0.18069568
242	0xbe2a9ce4	-0.16661412
243	0xbe4975a3	-0.19673781
244	0x3de3b0f4	0.111177355
245	0x3e80666d	0.25078145
246	0x3e52a978	0.2057246
247	0x3d0efcb8	0.03490898
248	0xbe48aeec	-0.19597977
249	0xbe82ace0	-0.25522518
250	0x3e56de2c	0.2098319
251	0x3d51f000	0.051254272
252	0xbe0b7a06	-0.13620767
253	0x3d9815a0	0.07426
254	0x3dfa0a9c	0.12209055
255	0xbe23e7eb	-0.16006438

0.bias f4 [64]
0	0xbe1b2eb7	-0.15154539
1	0xbe4b2eff	-0.19842146
2	0x3bf07980	0.0073387027
3	0x3defacd4	0.11702886
4	0x3d160088	0.0366216
5	0x3e4c069c	0.19924396
6	0xbe269fde	-0.16271922
7	0xbe69b01c	-0.22821087
8	0x3e178d20	0.14799929
9	0xbe5e1b4f	-0.21690105
10	0x3d9183c8	0.071052134
11	0xbdf0c794	-0.117568165
12	0x3c52bf00	0.012862921
13	0xbe3acdec	-0.18242615
14	0xbe633524	-0.2218824
15	0x3e566442	0.20936683
16	0xbe23329f	-0.15937279
17	0xbca7d178	-0.020485625
18	0x3d1fb320	0.038989186
19	0x3e541eec	0.20714921
20	0xbe64b564	-0.2233482
21	0x3e840d07	0.2579119
22	0x3e426f90	0.1898787
23	0xbe524209	-0.20533003
24	0x3d640d70	0.055676877
25	0x3e1f4ce6	0.15556678
26	0xbe3837f2	-0.17990091
27	0xbe83514a	-0.25647956
28	0x3e30c6d8	0.17263353
29	0xbb8e5440	-0.0043435395
30	0x3df54acc	0.11977157
31	0xbe3caa60	-0.18424368
32	0xbe7ae0ea	-0.2449986
33	0xbd7a0458	-0.0610393
34	0xbe7a0c39	-0.24418725
35	0xbe1b12a5	-0.15143831
36	0x3e598390	0.21241593
37	0xbe84291a	-0.25812608
38	0x3e21bbc6	0.15794286
39	0x3e011688	0.12606251
40	0x3e35c8aa	0.17752329
41	0xbe7a9c4b	-0.24473684
42	0xbdbe095e	-0.092791304
43	0x3bcc77c0	0.0062398612
44	0xbe4af0e8	-0.19818461
45	0xbd86a24a	-0.06573923
46	0xbe1b3e71	-0.15160538
47	0xbda96010	-0.082702756
48	0x3e412560	0.18861914
49	0xbe47fc3c	-0.19529814
50	0xbdbe24cc	-0.09284362
51	0x3d78b560	0.060719848
52	0x3e64573c	0.22298902
53	0xbd8d3d76	-0.06896488
54	0xbd3acd04	-0.045605674
55	0xbe467fa8	-0.19384634
56	0xbe841d01	-0.25803378
57	0xbcda2eb0	-0.02663359
58	0xbe5f6958	-0.21817529
59	0x3e25c6f4	0.16189176
60	0x3e1bd7dc	0.15219063
61	0xbdb085c2	-0.08619262
62	0x3e819107	0.2530596
63	0x3e75a07c	0.23987001

2.weight f4 [32, 64]
0	0x3dfd9240	0.123814106
1	0xbcff5fa0	-0.031173527
2	0x3c8a0d80	0.01685214
3	0x3dbf3bce	0.09337579
4	0xbdbf072c	-0.0932754
5	0x3c053360	0.008129925
6	0xbc6e9980	-0.014562964
7	0x3ca8b788	0.020595327
8	0x3dd4d2e2	0.10391785
9	0xbd8d7f5c	-0.069090575
10	0x3c9a1c78	0.018812403
11	0x3d41d80c	0.04732518
12	0x3d21a5c8	0.039464742
13	0xbde7ee8a	-0.113247946
14	0x3db0e8d2	0.08638157
15	0x3ce90b70	0.028447837
16	0x3ddd7896	0.108140156
17	0x3dd5ad6c	0.10433468
18	0xbd6fc634	-0.05853863
19	0xbdd913b8	-0.10599464
20	0xbdaab166	-0.08334617
21	0x3d9ee706	0.07758908
22	0x3df69ba2	0.12041403
23	0x3df65992	0.12028803
24	0x3d9853fa	0.07437892
25	0xbde04bf0	-0.10951984
26	0xbc71d460	-0.014760107
27	0xbc373330	-0.011181638
28	0xbbbbf520	-0.0057360083
29	0xbdc75eba	-0.097348645
30	0xbc1c84d0	-0.009553149
31	0xbca15ab8	-0.019696578
32	0x3dce0f4a	0.1006151
33	0x3ab3b380	0.0013710111
34	0xbcc19948	-0.02363266
35	0x3b594b80	0.0033156574
36	0xbd22e030	-0.039764583
37	0x3c874ab8	0.01651512
38	0xbce2b318	-0.02767329
39	0xbdf45272	-0.11929788
40	0xbdfbb534	-0.12290421
41	0x3c897520	0.016779482
42	0x3de1dbe6	0.110282704
43	0x3dea7654	0.114483505
44	0x3d6f80c4	0.05847241
45	0xbcf28890	-0.029606134
46	0x3c83a6e0	0.016070783
47	0x3d8bea36	0.068317816
48	0x3da5f6ec	0.08103737
49	0x3d6514c4	0.055928007
50	0x3c8609f8	0.016362175
51	0xbdc6e45c	-0.09711525
52	0x3d402414	0.046909407
53	0xbd182760	-0.037146926
54	0xbd4c5418	-0.049884886
55	0x3df7e6f6	0.12104599
56	0xbd3d6288	-0.046236545
57	0xbdb7ce36	-0.089748785
58	0x3d34a780	0.044105053
59	0x3d80ec16	0.0629503
60	0x3db4c94c	0.08827457
61	0x3d54fd10	0.05199915
62	0xbded2d3a	-0.11580892
63	0xbd40ca20	-0.04706776
64	0xbc7784f0	-0.015107378
65	0xbde110f8	-0.10989565
66	0x3dd24664	0.10267332
67	0xbdf01bee	-0.11724077
68	0xbdd6b912	-0.10484518
69	0xbd79b37c	-0.060962185
70	0x3daa1eee	0.083066806
71	0x3d109c08	0.035305053
72	0xbde29908	-0.11064345
73	0x3cd196d8	0.025584623
74	0xbdb04012	-0.086059704
75	0x3dc7b8d2	0.097520486
76	0x3ce37720	0.027766764
77	0xbb57c340	-0.0032922775
78	0xbdacb75a	-0.08433409
79	0xbdfef7d8	-0.12449616
80	0xbdc08ea4	-0.094022065
81	0x3b8e8920	0.0043498427
82	0x3ddb0e7c	0.10696122
83	0xbd903526	-0.07041387
84	0x3c105150	0.008808449
85	0xbd1bdf34	-0.03805466
86	0xbd2be654	-0.041967705
87	0xbd5539c0	-0.052057028
88	0xbd5c57c4	-0.053794637
89	0x3c9c32e0	0.019067228
90	0x3d2d2c88	0.042278796
91	0xbdd9b34a	-0.106299
92	0x3df1089c	0.1176922
93	0x3d881674	0.066449076
94	0xbd022e88	-0.031782657
95	0x3d57aff8	0.05265805
96	0x3dec8472	0.115486994
97	0x3c3686d0	0.01114054
98	0xbd25755c	-0.040395126
99	0xbd97bde4	-0.07409266
100	0x3df2872a	0.11842187
101	0x3ddf2688	0.10896021
102	0xbd19483c	-0.037422404
103	0xbdc4755a	-0.095926955
104	0xbd8b0bfe	-0.06789397
105	0x3d81d0ac	0.06338629
106	0xbdeb6d2e	-0.11495434
107	0x3dce0ed4	0.10061422
108	0xbd918154	-0.071047455
109	0xbddd15a6	-0.10795145
110	0xbdc74acc	-0.09731063
111	0x3d4c9d78	0.04995486
112	0x3de35e9e	0.11102031
113	0xbd6d2348	-0.057894975
114	0xbde95efe	-0.113950714
115	0x3d2022b8	0.03909561
116	0xbde0e3f6	-0.1098098
117	0x3d99dea6	0.0751317
118	0xbb41a9c0	-0.0029550642
119	0x3d129a4c	0.03579168
120	0x3d5e9ba0	0.054347634
121	0xbde2ec02	-0.11080171
122	0xbc56fff0	-0.013122544
123	0xbcc9e1a8	-0.024643734
124	0x3cfb4f90	0.030677587
125	0xbd1376e4	-0.036002055
126	0xbd959016	-0.07302873
127	0x3d9a2aa2	0.07527663
128	0xbdbedd40	-0.09319544
129	0x3df6526e	0.12027441
130	0xbda7c5e0	-0.081920385
131	0xba5dab00	-0.0008455962
132	0x3db88afc	0.09010884
133	0x3d4a2590	0.04935223
134	0xbdd4c6a6	-0.10389452
135	0x3d59b2a4	0.05314888
136	0xbcf9db88	-0.030500188
137	0x3d4b1490	0.049580157
138	0x3dca2fca	0.09872396
139	0xbd858ed4	-0.06521383
140	0x3dc28404	0.09497836
141	0x3de7b24a	0.11313303
142	0x3cac0be8	0.021001771
143	0x3dc6f1f8	0.097141206
144	0x3cafc460	0.021455944
145	0x3db1f3d8	0.08689088
146	0xbc68b890	-0.014204159
147	0xbd90ccb8	-0.07070297
148	0xbdf3810a	-0.118898466
149	0xbdfa26a0	-0.122143984
150	0xbd88fc0a	-0.06688698
151	0xbc82dff8	-0.015975937
152	0xbdbe7f0a	-0.093015745
153	0x3c278380	0.010224223
154	0x3dcdc03c	0.100464314
155	0xbd5fe084	-0.054657474
156	0x3dc2f8c0	0.095201015
157	0xbd7cedc0	-0.061750174
158	0x3d6aefc4	0.057357565
159	0x3d6fe9b4	0.058572486
160	0xbc1e15d0	-0.009648755
161	0xbd214830	-0.039375484
162	0x3d535498	0.051594347
163	0xbdf079d2	-0.117419854
164	0xbb36d4c0	-0.0027897805
165	0x3d8a7b06	0.06761746
166	0xbdf5be2e	-0.119991645
167	0xbd496508	-0.049168617
168	0x3da73c6c	0.081658214
169	0xbcdc0198	-0.026856229
170	0xbdb0ca2e	-0.08632313
171	0x3db5aba2	0.08870627
172	0xbd56e064	-0.05246009
173	0x3dc4a0ce	0.096009836
174	0xbd573f68	-0.052550703
175	0xbd25102c	-0.040298626
176	0x3d4c552c	0.049885914
177	0xbdaaab0a	-0.08333404
178	0xbdf9c9fa	-0.12196727
179	0xbc395b70	-0.011313304
180	0xbd29f97c	-0.041497692
181	0x3d572998	0.0525299
182	0x3d05dc6c	0.032680914
183	0x3dd44cc2	0.10366203
184	0xbc442a90	-0.011973038
185	0x3d3f54c0	0.046711683
186	0xbca58c40	-0.020208478
187	0xbdd0a950	-0.10188544
188	0xbd6908b4	-0.056893066
189	0x3dbe8650	0.09302962
190	0xbdb6ce36	-0.0892605
191	0x3d484dac	0.0489022
192	0xbca6d208	-0.020363823
193	0x3c431b30	0.0119083375
194	0x3cc6e940	0.024281144
195	0x3ba46460	0.0050168484
196	0x3d8de39a	0.06928177
197	0xbd3bf9fc	-0.0458927
198	0x3d1d9344	0.03847052
199	0x3d5ea0bc	0.054352507
200	0xbdfd6d5a	-0.12374373
201	0xbd191da8	-0.037381798
202	0x3c952058	0.0182039
203	0x3d120c0c	0.03565602
204	0xbd23a378	-0.039950818
205	0xbdfcdc78	-0.123467386
206	0x3d0fb228	0.035082012
207	0xbd150abc	-0.03638719
208	0xbd578be0	-0.05262363
209	0xbccc15d0	-0.024912745
210	0xbde77392	-0.1130134
211	0x3dda8210	0.10669339
212	0x3da56b1c	0.0807707
213	0x3c2e9d50	0.010657623
214	0x3dcc9f26	0.09991293
215	0xbde012a0	-0.109410524
216	0xbcba22a0	-0.022721589
217	0x3c92d2e8	0.017922834
218	0x3cc66198	0.024216458
219	0x3c5af730	0.013364598
220	0x3de93d46	0.1138864
221	0x3ded8ad0	0.11598742
222	0x3dba225a	0.09088583
223	0xbd94ccd0	-0.072656274
224	0xbdbf7706	-0.09348874
225	0x3decbf4c	0.115599245
226	0xbdb81000	-0.08987427
227	0xbd17a69c	-0.037024125
228	0x3db705ae	0.0893663
229	0x3d57e5c4	0.052709356
230	0x3d06b81c	0.032890424
231	0x3df06912	0.117387906
232	0x3d95d64a	0.07316263
233	0xbd90b8f4	-0.07066527
234	0x3c4196c0	0.011815727
235	0xbdd20a0a	-0.10255821
236	0xbde0b770	-0.10972488
237	0xbd09d73c	-0.03365253
238	0xbd8c4dfe	-0.06850813
239	0x3d2d70ec	0.04234402
240	0x3db3a384	0.087714225
241	0xbd03ece4	-0.03220834
242	0x3c5fb9c0	0.013655126
243	0x3ddf9b40	0.109182835
244	0xbd409068	-0.047012717
245	0xbd03febc	-0.032225356
246	0x3dff13aa	0.124549225
247	0xbd88bca6	-0.06676607
248	0xbc941420	-0.018076003
249	0x3d82ed06	0.06392865
250	0xbd3b9aa8	-0.04580179
251	0x3d07a9c8	0.0331209
252	0xbb721500	-0.0036938787
253	0xbdf2b782	-0.118514076
254	0x3dd910e6	0.10598926
255	0x3dfe635c	0.12421295

2.bias f4 [32]
0	0xbdd17416	-0.1022722
1	0x3c686010	0.014183059
2	0xbd1b6bc4	-0.03794457
3	0xbdc585de	-0.09644674
4	0x3d860b1a	0.06545086
5	0xba3d6800	-0.0007225275
6	0x3df58160	0.11987567
7	0xbd6c95a8	-0.05775991
8	0x3d9cbd0e	0.07653247
9	0xbb1ee840	-0.0024247319
10	0x3dd0df60	0.101988554
11	0xbdd0d11e	-0.10196136
12	0x3ded2b6c	0.11580548
13	0x3df0326a	0.11728366
14	0x3de72bf8	0.11287683
15	0x3d28aec0	0.04118228
16	0x3dbbf1f4	0.09177008
17	0x3c4886f0	0.012239203
18	0x3df00eb2	0.11721553
19	0x3d7007a8	0.05860105
20	0x3d3051f0	0.04304689
21	0x3da3770e	0.07981692
22	0x3d667c20	0.05627072
23	0x3d97d7d4	0.07414213
24	0x3d2d2f5c	0.042281494
25	0xbda61fc0	-0.081115246
26	0x3bcc9840	0.0062437356
27	0x3deeea34	0.116657645
28	0xbcac7fe8	-0.021057084
29	0x3db5e3fc	0.08881375
30	0x3db349f8	0.08754343
31	0x3d99144a	0.07474573
