model.pt (torch, 58715 bytes, 20 tensors)

0.weight f4 [128, 14]
0	0x3de8bed0	0.113645196
1	0x3e883e93	0.2661024
2	0x3d3a9260	0.04554975
3	0xbe7d8992	-0.2475951
4	0xbe5bee7b	-0.21477692
5	0xbe282db9	-0.16423692
6	0xbe873519	-0.26407698
7	0x3e0622e2	0.13099244
8	0xbe5f067e	-0.2177982
9	0xbe88ae3e	-0.26695436
10	0xbe55f773	-0.20895176
11	0xbb0a0380	-0.0021059215
12	0xbe278389	-0.1635877
13	0xbe683e4b	-0.22680013
14	0xbd6f3789	-0.05840257
15	0xbe7c6ddc	-0.24651283
16	0xbcd13a3e	-0.025540467
17	0x3db6ac22	0.089195505
18	0xbcd016d4	-0.02540151
19	0xbea5596c	-0.32294786
20	0xbdeeb380	-0.11655331
21	0xbc1eecc6	-0.009700006
22	0x3ccc61c1	0.024948956
23	0x3be1cb3c	0.0068906825
24	0x3e06782d	0.13131781
25	0x3d3c5f74	0.04598947
26	0xbdd3e87c	-0.10347077
27	0xbe09df82	-0.13464168
28	0xbe787228	-0.24262297
29	0x3d669a0c	0.056299254
30	0xbd007fa3	-0.031371724
31	0xbcdd9daf	-0.027052728
32	0x3e72b98e	0.23703596
33	0xbe7b8b99	-0.24564971
34	0x3c4d9a14	0.012548942
35	0xbb0b5e0b	-0.002126577
36	0xbe7ca7bc	-0.2467336
37	0xbe8c524d	-0.2740654
38	0x3c26c63b	0.010179098
39	0xbc73ebd8	-0.0148877725
40	0xbca058dd	-0.019573623
41	0x3e6f6e77	0.23381983
42	0x3d31b7c3	0.04338814
43	0xbe71476c	-0.23562402
44	0xbe82437d	-0.25442114
45	0xbe632442	-0.221818
46	0x3d859c9f	0.06524014
47	0xbde19cdb	-0.11016246
48	0x3de112d0	0.10989916
49	0xbda54fcb	-0.0807186
50	0x3e3e20d5	0.18567212
51	0x3e3a45f8	0.18190753
52	0x3cf93f40	0.030425668
53	0xbdfdf5b7	-0.12400382
54	0xbdbc930c	-0.092077345
55	0xbe8df4a3	-0.27725706
56	0xbe029583	-0.12752347
57	0xbe871759	-0.26385
58	0xbe177db5	-0.14794047
59	0x3dc3529c	0.09537241
60	0xbe491d38	-0.19640052
61	0xbdd4dd40	-0.103937626
62	0x3e73df50	0.23815656
63	0xbdf119d9	-0.11772508
64	0x3d83c164	0.06433371
65	0xbd9cbb99	-0.07652969
66	0x3e183891	0.14865328
67	0xbe0ad0a2	-0.1355615
68	0xbd78b1f6	-0.06071659
69	0xbe0f2986	-0.13980684
70	0x3ceb5a5e	0.028729614
71	0xbe96d023	-0.2945567
72	0xbe6fb872	-0.23410204
73	0xbe70c87e	-0.23513982
74	0x3c389493	0.011265892
75	0x3d2ca25b	0.04214702
76	0xbb103d44	-0.0022009173
77	0xbc96b05f	-0.018394647
78	0xbcc70060	-0.024292171
79	0x3e35c3e5	0.17750509
80	0x3d863dc2	0.06554748
81	0x3dc324f3	0.09528532
82	0x3d89b01b	0.067230426
83	0xbeb9347b	-0.36172852
84	0x3d9b1d1f	0.07573914
85	0x3d8e320a	0.06943138
86	0xbd94258e	-0.072337255
87	0x3dc68e50	0.09695113
88	0xbe188743	-0.14895348
89	0x3d80415f	0.062624685
90	0x3e003ef9	0.12524022
91	0x3e785a34	0.2425316
92	0xbd1ec44b	-0.03876142
93	0xbd986b96	-0.074423954
94	0x3dcc0fb4	0.09963933
95	0xbe237d4c	-0.15965766
96	0xbdea931c	-0.1145384
97	0xbda4c000	-0.080444336
98	0x3e545493	0.20735388
99	0x3cf989aa	0.030461151
100	0x3e04786c	0.12936562
101	0x3e670c32	0.22563246
102	0x3e101070	0.1406877
103	0xbe85bcc7	-0.26120588
104	0xbe083acd	-0.1330368
105	0x3e3af4c5	0.18257435
106	0x3e036df5	0.12834914
107	0x3cbc093d	0.022953624
108	0x3e55d743	0.20882897
109	0x3e68c60d	0.227318
110	0x3e43389d	0.19064565
111	0x3e29525a	0.16535321
112	0xbd9306d9	-0.071790405
113	0x3bed326e	0.0072386777
114	0xbe3bd919	-0.18344535
115	0x3cd1fc34	0.025632955
116	0xbd464769	-0.048407946
117	0xbe061b95	-0.13096459
118	0xbe1bfc72	-0.15233019
119	0xbe8e381d	-0.27777186
120	0x3e05cd48	0.1306659
121	0x3d472df4	0.04862781
122	0x3c707469	0.014676192
123	0x3df4a41d	0.119453646
124	0x3e6b05f5	0.22951491
125	0x3d595d4f	0.0530675
126	0xbd87f16c	-0.066378444
127	0xbe51cf6f	-0.20489286
128	0x3d668ad8	0.056284755
129	0xbe86dce0	-0.2634039
130	0x3dd08ff0	0.10183704
131	0x3e476afa	0.19474402
132	0xbe160980	-0.14652061
133	0xbe4757fb	-0.19467156
134	0xbe0069be	-0.12540337
135	0x3d1fdfc0	0.039031744
136	0xbe865af2	-0.2624126
137	0x3e18d16a	0.14923635
138	0xbe711225	-0.23542078
139	0x3da60380	0.08106136
140	0xbe636c17	-0.22209202
141	0x3e5e13cf	0.21687244
142	0x3d6bcd0a	0.057568587
143	0x3e6e6ecc	0.23284453
144	0x3da750c2	0.081697
145	0x3e8bb138	0.27283645
146	0x3dd7fd3a	0.10546346
147	0x3ce93668	0.028468326
148	0x3e75e4cd	0.24013062
149	0xbe582bb7	-0.21110426
150	0x3d85440d	0.0650712
151	0x3d95dbb5	0.073172964
152	0x3d9a53a5	0.07535485
153	0x3df3bab2	0.11900844
154	0xbe12c009	-0.14331068
155	0xbe0f3230	-0.13983989
156	0x3db2f1b5	0.08737508
157	0x3e5fac3a	0.21843043
158	0xbdaa84c2	-0.08326103
159	0xbd584092	-0.052795954
160	0x3d95f2e1	0.07321716
161	0x3e1e56f0	0.15462852
162	0x3e0aa4f6	0.1353949
163	0x3dce9569	0.100870915
164	0x3d775fca	0.060394086
165	0xbd13aa13	-0.036050867
166	0xbe87322d	-0.2640547
167	0x3e4c1142	0.19928458
168	0xbdaf6195	-0.08563534
169	0x3c14634e	0.009056879
170	0x3e1d47bf	0.153594
171	0x3cc7926e	0.024361815
172	0x3e820eed	0.25402012
173	0xbd846e17	-0.064663105
174	0x3bce8ea0	0.0063036233
175	0x3d082d63	0.03324641
176	0x3e0a9252	0.1353238
177	0x3d9d13a4	0.07669762
178	0xbcbe3e83	-0.023223167
179	0xbe5a7556	-0.21333823
180	0xbe8f13a4	-0.27944672
181	0xbd112f3f	-0.035445448
182	0xbea123ba	-0.3147257
183	0xbe641378	-0.22273052
184	0xbcacf039	-0.02111064
185	0xbdb6208a	-0.08892925
186	0xbc781297	-0.015141151
187	0xbdd67bc2	-0.10472824
188	0x3e672646	0.22573194
189	0x3d83ec59	0.06441564
190	0xbd83eff4	-0.06442252
191	0x3d99991f	0.07499909
192	0x3e7954ba	0.24348727
193	0x3e68bd27	0.22728406
194	0x3df6a4ac	0.120431274
195	0x3d2e7875	0.042595346
196	0x3e7024a9	0.23451485
197	0x3e26c778	0.16287029
198	0xbd48aece	-0.04899483
199	0x3d92ce09	0.07168204
200	0x3e5faab5	0.21842463
201	0xbdd14fac	-0.10220274
202	0x3e4c8e10	0.19976068
203	0x3dc0904c	0.094025224
204	0x3de17fd0	0.110107064
205	0xbe6e4991	-0.23270251
206	0xbe14d448	-0.14534104
207	0x3db1edea	0.08687957
208	0x3d488706	0.048956893
209	0x3e84b5ba	0.25919896
210	0x3dda1829	0.106491394
211	0x3be35b02	0.006938339
212	0xbe4b6739	-0.19863595
213	0xbe5c234e	-0.21497843
214	0x3e068fa8	0.13140738
215	0xbe02e743	-0.12783532
216	0xbe7b0961	-0.24515297
217	0xbe13202a	-0.14367738
218	0xbe714700	-0.2356224
219	0x3de39a1e	0.1111338
220	0x3e0f3d72	0.13988283
221	0x3e17499d	0.14774175
222	0xbd173650	-0.03691703
223	0x3e02cf04	0.12774283
224	0xbe8a8150	-0.27051783
225	0xbe4d38d3	-0.20041208
226	0x3dd9c7b9	0.10633797
227	0xbd43795a	-0.04772315
228	0x3cfa89b8	0.030583248
229	0x3dde4e1e	0.108547434
230	0xbe18aa71	-0.14908768
231	0x3e3aa950	0.1822865
232	0xbd4b6cef	-0.049664434
233	0xbe2b548d	-0.16731472
234	0xbe902503	-0.28153238
235	0x3e5d5401	0.21614076
236	0x3dbecbf3	0.09316244
237	0x3de6ed6f	0.112757556
238	0x3e2ab86a	0.16671911
239	0x3e0caeb0	0.13738513
240	0xbe20ce66	-0.15703735
241	0x3b462980	0.0030237138
242	0xbe47bb5e	-0.19505069
243	0xbcc5db58	-0.024152443
244	0x3b864d80	0.004098594
245	0xbe28f32c	-0.16499013
246	0xbe3c6aa0	-0.18400049
247	0x3d5261a0	0.051362634
248	0xbe1487ce	-0.1450493
249	0x3d12bba0	0.035823464
250	0xbe32b0e0	-0.17450285
251	0xbd9278ce	-0.07151948
252	0xbd467803	-0.048454296
253	0xbe74b89f	-0.23898552
254	0xbe43e741	-0.19131185
255	0x3d7bae0b	0.061445277

0.bias f4 [128]
0	0xbe58f228	-0.21186125
1	0x3d105c8c	0.03524451
2	0xbc5fdafb	-0.013663049
3	0xbc8c0979	-0.01709436
4	0x3e350768	0.17678607
5	0x3d93e8fe	0.07222174
6	0x3e77042a	0.24122682
7	0x3e299b26	0.1656309
8	0xbb95a2b1	-0.0045665135
9	0xbe1c0c66	-0.15239105
10	0xbd65faeb	-0.056147497
11	0x3b155296	0.002278482
12	0xbe7843fe	-0.24244687
13	0xbdd4162c	-0.103557914
14	0x3e544cfa	0.20732489
15	0x3e7d1dfd	0.24718471
16	0x3e33d65c	0.1756224
17	0xbe396a2e	-0.1810691
18	0xbe01c52a	-0.12672868
19	0x3cfd6a4e	0.03093448
20	0xbe6237ed	-0.22091646
21	0xbc716f18	-0.0147359595
22	0xbe724062	-0.23657373
23	0xbe7310e6	-0.23736915
24	0x3c182db5	0.009288241
25	0x3dd283e1	0.1027906
26	0x3e87f77e	0.2655601
27	0xbe851610	-0.25993395
28	0x3e787460	0.24263144
29	0xbe226112	-0.15857342
30	0xbdcafe38	-0.0991177
31	0x3d955e0d	0.072933294
32	0xbca5a463	-0.020219987
33	0xbe850a7d	-0.25984564
34	0xbdc2e6d8	-0.09516686
35	0x3e3d5927	0.1849104
36	0xbe640820	-0.22268724
37	0x3dab1d2d	0.08355174
38	0x3e4030a1	0.1876855
39	0xbe0e251c	-0.13881344
40	0x3e70fe41	0.2353449
41	0xbd738eab	-0.05946223
42	0xbd6919c9	-0.056909356
43	0xbe5e73e0	-0.2172389
44	0xbce531d3	-0.02797786
45	0xbe5940bd	-0.21216102
46	0x3e10d608	0.14144146
47	0x3e8007eb	0.2500604
48	0xbce9072a	-0.028445799
49	0xbe50ebc6	-0.2040244
50	0xbdbc1f59	-0.091856666
51	0x3c95d03e	0.018287774
52	0x3ce9f610	0.028559715
53	0xbe200505	-0.15626915
54	0xbe3c7734	-0.18404847
55	0xbe22cd90	-0.15898728
56	0xbe118c85	-0.1421376
57	0x3d9a26a9	0.07526905
58	0x3d86c14c	0.06579837
59	0xbd4b8fdf	-0.049697753
60	0x3bc53cfe	0.0060192337
61	0xbd0ffe85	-0.035154838
62	0xbd31dc5f	-0.043423053
63	0xbd4b620e	-0.04965406
64	0xbc2f6185	-0.010704403
65	0x3e5a2985	0.21304901
66	0xbe2b355e	-0.16719577
67	0xbd89cb06	-0.06728177
68	0xbd8d9c83	-0.06914618
69	0x3e54c664	0.20778805
70	0x3dc8535c	0.097815245
71	0xbe8796a0	-0.26482105
72	0xbe78e5dd	-0.24306436
73	0x3b8bcf13	0.0042666285
74	0x3e7d4218	0.24732244
75	0x3dcf80fd	0.101320244
76	0xbe2addfd	-0.16686244
77	0xbd2cbbac	-0.042171165
78	0xbe7b983b	-0.2456979
79	0xbd5b4ea6	-0.053541802
80	0x3e89cbc1	0.26913264
81	0x3e5478ef	0.20749258
82	0xbdaba3d2	-0.083808556
83	0xbe018f6e	-0.1265237
84	0xbdb0ae8a	-0.08627041
85	0xbdda5a8e	-0.10661803
86	0x3e71b28e	0.2360327
87	0xbe4d5bcf	-0.20054553
88	0x3e312321	0.17298557
89	0xbca0dda3	-0.019636935
90	0x3e308fc2	0.17242339
91	0x3e5f46c0	0.21804333
92	0x3e636e29	0.22209992
93	0x3e955a37	0.2917039
94	0xbe38cb27	-0.18046246
95	0xbd86947d	-0.06571291
96	0x3bd184d6	0.006394009
97	0xbdad2ded	-0.08456025
98	0x3de6d9b7	0.112719946
99	0x3dcebc59	0.10094518
100	0xbe1ea7f8	-0.15493762
101	0xbe500cae	-0.20317337
102	0xbe4e6922	-0.20157292
103	0x3e80eedb	0.25182232
104	0x3e017b0d	0.12644596
105	0x3ce18075	0.027527073
106	0xbda1d275	-0.079014696
107	0xbe1249ba	-0.14285937
108	0x3e41c6bd	0.18923469
109	0xbe2dae64	-0.16961056
110	0x3d9e1b58	0.07720059
111	0x3da8edc2	0.08248474
112	0xbe680700	-0.2265892
113	0x3e8b530f	0.27211806
114	0xbdd8c107	-0.10583692
115	0xbd604070	-0.054748952
116	0xbe5bfaa0	-0.21482325
117	0x3e490d5d	0.19634004
118	0x3e4f3e17	0.20238529
119	0xbe75f44a	-0.2401897
120	0x3d392413	0.04520042
121	0xbe6c755c	-0.23091644
122	0xbe256f88	-0.16155827
123	0xbe485b99	-0.19566192
124	0xbe5c192b	-0.21493976
125	0x3c5d9482	0.013524177
126	0xbdcf7587	-0.101298384
127	0x3db06482	0.0861292

2.weight f4 [128]
0	0x3f800000	1.0
1	0x3f875872	1.0573866
2	0x3f83e63f	1.030464
3	0x3f851a07	1.0398568
4	0x3f84f6fb	1.0387872
5	0x3f870efa	1.0551445
6	0x3f75db87	0.960381
7	0x3f6d39cf	0.92666334
8	0x3f7b59d6	0.98183954
9	0x3f800000	1.0
10	0x3f706063	0.93897074
11	0x3f6ec391	0.9326716
12	0x3f88ae12	1.0678122
13	0x3f77d627	0.96811146
14	0x3f714e80	0.94260406
15	0x3f756255	0.9585317
16	0x3f72f71a	0.949083
17	0x3f800000	1.0
18	0x3f7e0cc4	0.9923823
19	0x3f789ab5	0.97111064
20	0x3f808b0a	1.0042431
21	0x3f7d1c17	0.98870987
22	0x3f7f9d16	0.9984907
23	0x3f839f5d	1.0283009
24	0x3f741e88	0.95359087
25	0x3f701ae9	0.9379106
26	0x3f7139c6	0.9422878
27	0x3f800000	1.0
28	0x3f6fee47	0.9372296
29	0x3f749a1a	0.9554764
30	0x3f6b38bf	0.9188346
31	0x3f66a80f	0.9010019
32	0x3f7e1b56	0.9926046
33	0x3f800000	1.0
34	0x3f781a16	0.96914804
35	0x3f6808c5	0.9063838
36	0x3f800000	1.0
37	0x3f6ab508	0.9168248
38	0x3f70acae	0.9401349
39	0x3f796508	0.97419786
40	0x3f7051a7	0.9387459
41	0x3f6bc84d	0.9210251
42	0x3f74b451	0.9558764
43	0x3f80be0b	1.0057997
44	0x3f6d747e	0.9275588
45	0x3f800000	1.0
46	0x3f808324	1.0040021
47	0x3f642c1d	0.8912981
48	0x3f765b79	0.96233326
49	0x3f6cda2f	0.9252042
50	0x3f6d5910	0.92714024
51	0x3f6bb18d	0.92067796
52	0x3f800000	1.0
53	0x3f83e79e	1.0305059
54	0x3f828233	1.0195984
55	0x3f807bc8	1.0037775
56	0x3f6b7862	0.91980565
57	0x3f832feb	1.0248998
58	0x3f6b91ea	0.9201952
59	0x3f709b54	0.9398701
60	0x3f88ba9a	1.0681946
61	0x3f718cf3	0.94355696
62	0x3f6e3671	0.9305182
63	0x3f718eb3	0.94358367
64	0x3f7f3c66	0.99701536
65	0x3f885e5a	1.0653794
66	0x3f800000	1.0
67	0x3f800000	1.0
68	0x3f845b60	1.0340385
69	0x3f8b8b35	1.0901858
70	0x3f837517	1.0270108
71	0x3f800000	1.0
72	0x3f77c241	0.9678078
73	0x3f694787	0.9112477
74	0x3f71d447	0.94464535
75	0x3f6aec59	0.9176689
76	0x3f710ce5	0.941603
77	0x3f6b7a78	0.9198375
78	0x3f800000	1.0
79	0x3f6cbec9	0.92478615
80	0x3f6aaf17	0.91673416
81	0x3f6e7502	0.9314729
82	0x3f800000	1.0
83	0x3f800000	1.0
84	0x3f800000	1.0
85	0x3f6a3a56	0.91495264
86	0x3f6d66b7	0.92734855
87	0x3f71fd5b	0.94527215
88	0x3f71252d	0.9419735
89	0x3f6f1b27	0.93400806
90	0x3f6d9e94	0.92820096
91	0x3f72405a	0.9462944
92	0x3f76012e	0.9609555
93	0x3f6e1da8	0.93014
94	0x3f800000	1.0
95	0x3f6e7d28	0.93159723
96	0x3f7334f0	0.9500265
97	0x3f78d9c1	0.97207266
98	0x3f7aa339	0.9790531
99	0x3f6cd11f	0.92506593
100	0x3f7f0caf	0.9962873
101	0x3f800000	1.0
102	0x3f798b53	0.97478217
103	0x3f733924	0.95009065
104	0x3f7d18f5	0.98866206
105	0x3f71cac7	0.9445004
106	0x3f6bbb40	0.92082596
107	0x3f7636cb	0.9617736
108	0x3f71fcf5	0.94526607
109	0x3f7e6092	0.99366105
110	0x3f88fb82	1.0701754
111	0x3f6e4033	0.9306671
112	0x3f800000	1.0
113	0x3f65fe35	0.89841014
114	0x3f7e7822	0.9940206
115	0x3f7ee86f	0.99573416
116	0x3f800000	1.0
117	0x3f77199d	0.9652346
118	0x3f88b4b6	1.0680149
119	0x3f74b2dc	0.9558542
120	0x3f8ad692	1.0846732
121	0x3f800000	1.0
122	0x3f76d99f	0.96425813
123	0x3f795c67	0.9740662
124	0x3f6a740d	0.9158333
125	0x3f8070b3	1.0034393
126	0x3f81ec9b	1.0150331
127	0x3f863804	1.0485845

2.bias f4 [128]
0	0xbe21ab77	-0.15788065
1	0xbe080531	-0.1328323
2	0xbc4bf90d	-0.012449515
3	0xbe1abe3b	-0.1511163
4	0xbe226bf7	-0.15861498
5	0xbe1a5896	-0.15072855
6	0x3cd76fb4	0.026298381
7	0x3d3f9839	0.04677603
8	0x3be90163	0.007110761
9	0x3e1cd93b	0.15317242
10	0x3dab7be5	0.083732404
11	0x3bea077b	0.007142005
12	0xbe079972	-0.13242128
13	0xbdd27a59	-0.10277242
14	0x3dc38d33	0.09548416
15	0xbd87eae1	-0.066365965
16	0x3d800eee	0.062528476
17	0xbe2524b4	-0.16127282
18	0xbe22e36a	-0.15907064
19	0xbdee3aeb	-0.116323315
20	0xbdfc256b	-0.123118244
21	0x3e11a19c	0.14221805
22	0xbdb8069f	-0.08985638
23	0xbe0f79c3	-0.14011292
24	0x3ddd4be8	0.108054936
25	0xbd795cec	-0.060879633
26	0x3dac2a98	0.084065616
27	0xbe2eea21	-0.170815
28	0x3d834b11	0.06410802
29	0x3cc74306	0.024323951
30	0xb9a1c141	-0.00030852298
31	0x3d415fd2	0.047210522
32	0xbdbb49e8	-0.09144956
33	0x3e29436c	0.16529626
34	0x3da72377	0.08161061
35	0x3da2d936	0.07951586
36	0xbe2b468c	-0.1672613
37	0x3dd6a424	0.10480526
38	0x3d75f653	0.060049366
39	0x3ddbd0db	0.107331954
40	0x3d1b3890	0.03789574
41	0x3dca4a03	0.09877398
42	0xbc177d82	-0.009246232
43	0xbde2d859	-0.11076421
44	0xbc28a2b2	-0.010292696
45	0xbe2d3c7e	-0.16917607
46	0x3dd2b811	0.10289014
47	0xbd757a22	-0.059930928
48	0x3d902430	0.07038152
49	0xbd4a6f3a	-0.04942248
50	0x3d4642a0	0.048403382
51	0xbd172753	-0.036902737
52	0x3e326e73	0.17424946
53	0xbe0d624e	-0.13807032
54	0xbd9b4d74	-0.075831324
55	0x3d8fcfa2	0.07022025
56	0xbdb793de	-0.0896375
57	0x3da979f2	0.08275212
58	0x3daffc42	0.08593036
59	0x3df8227c	0.121159524
60	0xbe16b3a4	-0.14716965
61	0x3ddc3508	0.107523024
62	0xbd4ea60c	-0.050451323
63	0xbd1eac67	-0.038738634
64	0xbe0ce5f9	-0.13759603
65	0xbe0600bf	-0.13086222
66	0xbe298a5c	-0.16556686
67	0xbe19d96b	-0.15024345
68	0x3b52b48b	0.003215107
69	0xbe01d236	-0.12677845
70	0xbe224b17	-0.15848957
71	0x3e318108	0.17334378
72	0x3dd1304f	0.10214292
73	0xbd776e73	-0.060408067
74	0x3d142b50	0.03617412
75	0x3db5de11	0.088802464
76	0x3e049765	0.12948377
77	0x3dbb97a2	0.09159781
78	0x3e2d3d1d	0.16917844
79	0x3cd78f17	0.026313348
80	0xbdb816c6	-0.08988719
81	0xbc4f29ad	-0.012644214
82	0xbe315181	-0.17316248
83	0x3e20bdca	0.15697399
84	0xbe21bff1	-0.15795876
85	0x3dacf047	0.08444267
86	0x3d3dcb91	0.046336714
87	0x3d89334f	0.066992395
88	0xbccf3010	-0.025291473
89	0xbcecbce7	-0.02889867
90	0x3dd22723	0.10261371
91	0x3dd8e62d	0.105907775
92	0xbdf109b6	-0.1176943
93	0xbdbe5091	-0.092927106
94	0x3e34c667	0.1765381
95	0x3dac45b8	0.08411735
96	0x3db26d03	0.087121986
97	0xbdaf1847	-0.085495524
98	0xbdf354ec	-0.11881432
99	0x3d96fa5e	0.073719725
100	0x3df94ade	0.12172483
101	0x3e34a040	0.17639256
102	0xbd27ec00	-0.04099655
103	0x3d24e751	0.040259663
104	0x3c94b7fb	0.018154135
105	0x3d66535a	0.056231834
106	0x3ce24132	0.027618978
107	0xbdcb62d3	-0.099309586
108	0xbdc22127	-0.094789796
109	0xbdfd2c27	-0.12361937
110	0xbe093205	-0.13397987
111	0xbd1e2ebc	-0.038618788
112	0xbe2d8189	-0.16943945
113	0xbda7440a	-0.08167274
114	0xbe261758	-0.16219842
115	0x3e244640	0.16042423
116	0xbe2eda15	-0.17075379
117	0xbd673678	-0.05644843
118	0xbe0a8b88	-0.1352979
119	0x3db0e474	0.08637324
120	0xbe159477	-0.14607416
121	0x3e297019	0.16546668
122	0x3dd5d798	0.10441512
123	0xbdbdf616	-0.09275453
124	0xbd28c760	-0.041205764
125	0xbe0df2dc	-0.13862175
126	0x3e0689f8	0.13138568
127	0xbe1965a8	-0.14980185

2.running_mean f4 [128]
0	0x00000000	0.0
1	0x3b570881	0.0032811465
2	0x3854030c	5.0547576e-05
3	0x3b2f0466	0.0026705503
4	0x3b8d143c	0.0043053906
5	0x3c30edac	0.010798853
6	0x3ea94445	0.33059898
7	0x3f4c5768	0.7982087
8	0x3bdc273d	0.0067185448
9	0x00000000	0.0
10	0x3ec74f19	0.38927534
11	0x3e676d95	0.22600396
12	0x38b23882	8.498227e-05
13	0x3c206003	0.009788516
14	0x3efb9f1e	0.49144834
15	0x3dcad98a	0.099047735
16	0x3dce1822	0.10063197
17	0x00000000	0.0
18	0x287dfc34	1.4099009e-14
19	0x3b74680c	0.0037293462
20	0x2c993b94	4.355136e-12
21	0x288daf1d	1.5730088e-14
22	0x2c60abed	3.1927753e-12
23	0x2d1ffef4	9.0947146e-12
24	0x3bc8a226	0.006122845
25	0x3eae0ff2	0.3399654
26	0x3ea8bc15	0.32955995
27	0x00000000	0.0
28	0x3ef74202	0.48292547
29	0x3e76849f	0.24074028
30	0x3d8f9d3d	0.07012413
31	0x3de02b3b	0.109457456
32	0x3e90a1a5	0.28248325
33	0x00000000	0.0
34	0x3bd73a0b	0.0065681986
35	0x3f0a976b	0.54137295
36	0x00000000	0.0
37	0x3eb28e30	0.34874105
38	0x3ec2bac4	0.38033116
39	0x357d551b	9.437369e-07
40	0x3e95df20	0.29271793
41	0x3eb93283	0.3617135
42	0x3ef6f47c	0.48233402
43	0x2b8618aa	9.528118e-13
44	0x3e867bca	0.2626632
45	0x00000000	0.0
46	0x3c0e06aa	0.008668581
47	0x3ac251a5	0.0014825357
48	0x3c1ed4fe	0.009694336
49	0x3cb05139	0.021523105
50	0x3e8a857f	0.27054974
51	0x3e0a31c1	0.13495542
52	0x00000000	0.0
53	0x2d11ef33	8.295409e-12
54	0x2d5e2952	1.2628414e-11
55	0x2f932b46	2.6769892e-10
56	0x3c4559a5	0.012045299
57	0x3ab32492	0.0013667515
58	0x3d80b8f3	0.06285276
59	0x3a9aedb5	0.001182011
60	0x3b9a5036	0.004709269
61	0x3d4fbe73	0.050718736
62	0x3e8c428f	0.2739453
63	0x39063a2e	0.0001280091
64	0x3bd9fffc	0.00665283
65	0x3ba27972	0.004958325
66	0x00000000	0.0
67	0x00000000	0.0
68	0x379a5f03	1.8402474e-05
69	0x3be62fd2	0.0070247436
70	0x3c565482	0.013081672
71	0x00000000	0.0
72	0x32beac13	2.2197161e-08
73	0x3c6d9bca	0.014502475
74	0x3ecbef14	0.3983084
75	0x3ed4b874	0.41546977
76	0x3e75c575	0.24001105
77	0x3e2f91b9	0.17145433
78	0x00000000	0.0
79	0x3d96d54c	0.07364902
80	0x3e962632	0.29326016
81	0x3dc97170	0.098360896
82	0x00000000	0.0
83	0x00000000	0.0
84	0x00000000	0.0
85	0x3ecc0dbd	0.3985423
86	0x3f165b43	0.58733004
87	0x3d9c872b	0.07642969
88	0x3e0ceb52	0.13761643
89	0x3e7296c9	0.23690332
90	0x3ec4b19d	0.38416758
91	0x3ef6cd28	0.48203397
92	0x3e91dc3f	0.28488347
93	0x3e5724dd	0.21010156
94	0x00000000	0.0
95	0x3ecb8995	0.39753404
96	0x3de7155c	0.11283371
97	0x3ea107c0	0.31451225
98	0x3bdcdae4	0.006739961
99	0x3ec54bf2	0.38534504
100	0x3d3ac89f	0.045601483
101	0x00000000	0.0
102	0x36eaed43	7.0013643e-06
103	0x3eb0e40b	0.34548983
104	0x3c0590bd	0.008152184
105	0x3eac5219	0.33656386
106	0x3df1da04	0.11809161
107	0x3c4c70f9	0.012478107
108	0x3b605e48	0.0034235884
109	0x3b87059b	0.0041205413
110	0x3b90f5e7	0.004423845
111	0x3ee05a39	0.43818834
112	0x00000000	0.0
113	0x3e899aaa	0.26875812
114	0x27fe96f6	7.0662834e-15
115	0x25c0ac9f	3.3423663e-16
116	0x00000000	0.0
117	0x340bfa3f	1.3036423e-07
118	0x3b7d097a	0.0038610385
119	0x371917bd	9.125038e-06
120	0x3b729b21	0.0037018734
121	0x00000000	0.0
122	0x308ae7da	1.0106718e-09
123	0x3e276a0f	0.16349052
124	0x3e1dd1ba	0.15412036
125	0x3a650fd2	0.0008738014
126	0x389198d3	6.9426045e-05
127	0x3bfb2704	0.007664563

2.running_var f4 [128]
0	0x3041ed6d	7.0550393e-10
1	0x394670ef	0.00018924823
2	0x36c482cb	5.8564815e-06
3	0x39834d32	0.00025043782
4	0x39960b8a	0.00028618827
5	0x3ab25457	0.0013605457
6	0x3b96adc8	0.004598353
7	0x3c938bad	0.018010939
8	0x3a30efe6	0.0006749615
9	0x3041ed6d	7.0550393e-10
10	0x3cd74e30	0.0262824
11	0x3c3a56b4	0.011373211
12	0x3707b132	8.0878835e-06
13	0x3a801488	0.0009771744
14	0x3ca1941d	0.019723946
15	0x3bfeafa9	0.007772405
16	0x3c04919d	0.008091358
17	0x3041ed6d	7.0550393e-10
18	0x3041ed6d	7.0550393e-10
19	0x39a0bc8d	0.0003065806
20	0x3041fb18	7.0569817e-10
21	0x3041ed6d	7.0550393e-10
22	0x3041f56d	7.056176e-10
23	0x304218c4	7.0611983e-10
24	0x39f400a6	0.0004653979
25	0x3d2145d0	0.03937322
26	0x3c36227e	0.011116622
27	0x3041ed6d	7.0550393e-10
28	0x3c8963b4	0.016771175
29	0x3d047ea6	0.032347344
30	0x3ba0288d	0.0048876465
31	0x3c278869	0.010225394
32	0x3d35af96	0.044356905
33	0x3041ed6d	7.0550393e-10
34	0x39ce6803	0.00039368877
35	0x3ccae474	0.024767138
36	0x3041ed6d	7.0550393e-10
37	0x3bbf2c51	0.0058341403
38	0x3c0495df	0.008092373
39	0x329f122a	1.8518296e-08
40	0x3c498028	0.012298621
41	0x3ccfebec	0.025381051
42	0x3cda1164	0.02661962
43	0x3041f0be	7.0555106e-10
44	0x3bbe4e9c	0.005807711
45	0x3041ed6d	7.0550393e-10
46	0x3a882e12	0.0010389707
47	0x38cfecd2	9.9146404e-05
48	0x3a726945	0.0009247254
49	0x3b18314d	0.0023222745
50	0x3c74d48c	0.014943253
51	0x3beda036	0.0072517646
52	0x3041ed6d	7.0550393e-10
53	0x30420a40	7.0591355e-10
54	0x30422663	7.063134e-10
55	0x3046c5f1	7.231327e-10
56	0x3ac73f19	0.00152013
57	0x38c4d131	9.384973e-05
58	0x3b76afa9	0.0037641323
59	0x38192200	3.6509708e-05
60	0x39acfc7c	0.00032994512
61	0x3bdf9cba	0.006824103
62	0x3ccb7b15	0.024838964
63	0x365042b7	3.1033248e-06
64	0x3a1c404b	0.0005960508
65	0x39d98017	0.000414849
66	0x3041ed6d	7.0550393e-10
67	0x3041ed6d	7.0550393e-10
68	0x356a951b	8.738877e-07
69	0x3a4c2cd8	0.00077886647
70	0x3af05d80	0.0018338412
71	0x3041ed6d	7.0550393e-10
72	0x30dd4644	1.6099837e-09
73	0x3a75e758	0.0009380481
74	0x3bf4cb97	0.007470559
75	0x3ce4c498	0.027925774
76	0x3b9dbaa9	0.0048135114
77	0x3bfaa01e	0.007648482
78	0x3041ed6d	7.0550393e-10
79	0x3b73c2b5	0.0037194912
80	0x3cd35e06	0.02580167
81	0x3b5f8399	0.0034105538
82	0x3041ed6d	7.0550393e-10
83	0x3041ed6d	7.0550393e-10
84	0x3041ed6d	7.0550393e-10
85	0x3d036c2b	0.03208558
86	0x3cc40897	0.023929877
87	0x3bba7fef	0.0056915204
88	0x3b9d14ab	0.0047937236
89	0x3c98e460	0.018663585
90	0x3c0e102e	0.00867085
91	0x3be2101e	0.006898894
92	0x3c3dccf3	0.011584508
93	0x3be6904e	0.0070362454
94	0x3041ed6d	7.0550393e-10
95	0x3caca352	0.021073971
96	0x3c8b8618	0.017031714
97	0x3d40ae9c	0.04704152
98	0x3a158776	0.0005704084
99	0x3c1a42b2	0.009415315
100	0x3b0c7c1c	0.002143628
101	0x3041ed6d	7.0550393e-10
102	0x3403f537	1.2289534e-07
103	0x3c67a8cf	0.014139368
104	0x3a7a236a	0.000954202
105	0x3ca479a9	0.020077543
106	0x3c47792c	0.012174886
107	0x3a5c8d15	0.0008413357
108	0x39776d59	0.00023596491
109	0x39b836c6	0.00035136024
110	0x39db7542	0.000418583
111	0x3c311778	0.010808818
112	0x3041ed6d	7.0550393e-10
113	0x3b3f0bb1	0.0029151256
114	0x3041ed6d	7.0550393e-10
115	0x3041ed6d	7.0550393e-10
116	0x3041ed6d	7.0550393e-10
117	0x3174d9be	3.5630445e-09
118	0x39951df9	0.00028441826
119	0x3466afde	2.14844e-07
120	0x3966e146	0.0002201843
121	0x3041ed6d	7.0550393e-10
122	0x304dd749	7.4884504e-10
123	0x3c9dcfe2	0.019264165
124	0x3c612d48	0.013743706
125	0x3803c2ba	3.1414187e-05
126	0x37028c25	7.781234e-06
127	0x3a34a9bc	0.00068917475

4.weight f4 [64, 128]
0	0x3da33ed5	0.07970969
1	0x3de776c0	0.11301947
2	0x3d6949db	0.0569552
3	0xbcd55e67	-0.026045991
4	0x3decd5f4	0.11564246
5	0x3d384aaa	0.04499308
6	0x3da6446d	0.0811852
7	0x3ca37906	0.01995517
8	0xbc2ef63f	-0.010678827
9	0xbdb55d7e	-0.08855723
10	0xbbfad991	-0.0076553305
11	0x3d8eebb8	0.069785535
12	0x3c624b28	0.013811864
13	0x3d8d6f92	0.06906046
14	0x3b92c182	0.0044786343
15	0xbd0c3128	-0.034226567
16	0x3bbc25cd	0.005741811
17	0x3db2b3b4	0.08725682
18	0x3e4cc3d6	0.1999658
19	0x3d9f7bab	0.0778726
20	0xbdab5b6b	-0.08367046
21	0xbe0c8030	-0.13720775
22	0xbcfe763a	-0.031062234
23	0x3cc0c414	0.023530997
24	0xbdbc3d5b	-0.0919139
25	0x3d94abe0	0.07259345
26	0x3cfc5627	0.0308028
27	0x3e596c7a	0.21232787
28	0x3cebf3c9	0.02880277
29	0x392255de	0.00015481512
30	0x3d4d338b	0.050097983
31	0x3989548d	0.00026193672
32	0x3d873b15	0.06603066
33	0xbdf52d6a	-0.11971553
34	0x3c69d254	0.014271338
35	0x3d596a80	0.053080082
36	0x3dbce1c3	0.09222748
37	0x3d014e2d	0.031568695
38	0xbd14c471	-0.036320154
39	0xbca65c84	-0.020307787
40	0xbd7b5153	-0.061356854
41	0xbd116952	-0.035500832
42	0x3ce0193d	0.027355785
43	0xbcc64f50	-0.024207741
44	0x3d88a0d6	0.06671302
45	0x3df63adb	0.120229445
46	0xbd3e92f7	-0.046526875
47	0xbd5beaad	-0.0536906
48	0xba1d53d7	-0.0006001568
49	0xbcb3cc9c	-0.021948151
50	0xbd87449a	-0.066048816
51	0xbc7798fc	-0.015112158
52	0xbdfe36e7	-0.124128155
53	0x3c1a7707	0.009427792
54	0xbba1e801	-0.004940987
55	0x3d3657e4	0.044517413
56	0xbd2f26ed	-0.042761732
57	0x3c9c06fa	0.019046295
58	0xbd13d372	-0.03609032
59	0xbc40d383	-0.011769178
60	0x3df8cbc2	0.12148239
61	0xbd2c21e4	-0.042024508
62	0x3d781599	0.060567472
63	0x3d50c733	0.05097122
64	0xbd0518c1	-0.03249431
65	0x3d8945fe	0.06702803
66	0x3e4ed080	0.20196724
67	0x3e26834f	0.16261028
68	0xbdbcaa6e	-0.092121944
69	0x3d970b58	0.073752105
70	0xbd18f702	-0.03734494
71	0xbdcc0e13	-0.09963622
72	0x3dcab333	0.09897461
73	0x3ad26dc6	0.0016054444
74	0x3d0971b4	0.0335557
75	0xbd0c2a78	-0.03422019
76	0x3baeb614	0.005331764
77	0x3be4cd22	0.0069824615
78	0xbe6331cd	-0.22186966
79	0xbd745184	-0.05964805
80	0x3d8e2ab6	0.0694174
81	0x3d077f00	0.0330801
82	0x3e18c935	0.14920504
83	0xbe6873c5	-0.22700413
84	0x3dede003	0.116149925
85	0xbc32c2a4	-0.010910664
86	0xbc832a3a	-0.016011346
87	0x3d9f95f5	0.07792274
88	0xbd85e0ac	-0.065369934
89	0xbce909c4	-0.02844704
90	0xbcbe7bbc	-0.02325236
91	0xbda7b898	-0.08189505
92	0x3c90a591	0.017657073
93	0xbd6b12ca	-0.057390966
94	0xbd7c573c	-0.06160663
95	0x3bc009d0	0.0058605447
96	0x3c8542c5	0.01626719
97	0xbbd841ff	-0.006599664
98	0x3a82a4ed	0.0009967365
99	0xbd1dac4c	-0.038494393
100	0x3d336e07	0.043806102
101	0xbda105d9	-0.078624435
102	0xbc8d3c2b	-0.017240604
103	0x3d6510d1	0.05592424
104	0xbcee77c5	-0.029109845
105	0xbaa63a26	-0.0012682125
106	0xbd204d03	-0.039135944
107	0x3d85d153	0.06534066
108	0x3c8048ce	0.015659716
109	0x3c0037da	0.007825816
110	0xbd035d99	-0.032071684
111	0xbcceddc3	-0.025252229
112	0x3e60f3dd	0.21968026
113	0x3c836c21	0.01604277
114	0x3dd5949a	0.10428734
115	0xbdc65675	-0.09684459
116	0x3e44c087	0.19214068
117	0xbd09dd96	-0.033658586
118	0x3defbce2	0.117059484
119	0xbbaf3b8e	-0.0053476756
120	0x3da6e25a	0.08148642
121	0xbd713c02	-0.05889512
122	0xbd9bf51c	-0.0761511
123	0x3c751e66	0.014960861
124	0xbd4ebf28	-0.05047527
125	0x3d6ec0d3	0.05828936
126	0xbcd35689	-0.0257981
127	0x3adaa775	0.0016681986
128	0x3e624d0f	0.22099708
129	0xbcba8111	-0.022766622
130	0x3dc33f61	0.09533573
131	0xbc450637	-0.0120254075
132	0x3cca7ca8	0.024717644
133	0x3dd16a7d	0.10225389
134	0xbab47a1c	-0.0013769302
135	0x3d2a0a3f	0.041513678
136	0xbd9aa105	-0.07550243
137	0xbde1ddd6	-0.1102864
138	0x3d43714b	0.047715466
139	0x3c6e9910	0.01456286
140	0x3d4257f0	0.047447145
141	0x3d3b8ad3	0.04578669
142	0xbc2a1e5f	-0.010383218
143	0x3cff7794	0.031184949
144	0xbd857f84	-0.06518462
145	0x3e242a5f	0.16031788
146	0x3dd7ad46	0.10531096
147	0x3b94fc3e	0.004546671
148	0x3cd9a256	0.026566666
149	0xbca70789	-0.020389335
150	0x3c27ef00	0.010249853
151	0xbd31ff2c	-0.04345624
152	0xbda3dcb8	-0.08001083
153	0x3d57730c	0.05259995
154	0xbb184452	-0.0023234081
155	0x3db94e64	0.09048155
156	0xbd305ed8	-0.0430592
157	0x3d1d9178	0.038468808
158	0xbce79dfa	-0.028273571
159	0xbd599820	-0.053123593
160	0x3db85ff5	0.09002677
161	0xbde37db4	-0.1110796
162	0x3c8959f5	0.016766528
163	0x3c840f10	0.016120464
164	0x3e18d7a9	0.14926018
165	0xbcac97b0	-0.021068424
166	0xbd944c44	-0.07241109
167	0xbb848ad3	-0.0040448694
168	0xbc3444a3	-0.011002692
169	0xbd0c3361	-0.034228686
170	0x3c830283	0.015992409
171	0x3c4cb3cb	0.012494038
172	0xbc6537d7	-0.013990364
173	0x3e4a8300	0.19776535
174	0xbc89146e	-0.016733374
175	0x3bfb7a0f	0.0076744626
176	0x3c2bfacb	0.010496805
177	0x3b6396a7	0.0034727247
178	0x3d809701	0.06278802
179	0x3d2ce2a8	0.042208344
180	0xbdb3cc30	-0.0877918
181	0xbcae8cde	-0.021307405
182	0xbcbb0758	-0.02283065
183	0xbe11a262	-0.142221
184	0x3cc7af33	0.024375534
185	0xbdc0b62c	-0.094097465
186	0xbd166c4f	-0.036724385
187	0xbda440b1	-0.080201514
188	0x3d50f93c	0.05101894
189	0xbd805d32	-0.062677756
190	0xbd6a8184	-0.057252422
191	0x3c9f90df	0.01947826
192	0x3d74ac29	0.059734497
193	0x3dc543d9	0.096320815
194	0x3dda1974	0.10649386
195	0x3de7e322	0.11322619
196	0xbd122cfa	-0.035687424
197	0x3d060c75	0.032726724
198	0x3d640502	0.05566884
199	0xbe29a76d	-0.16567774
200	0xbd869e64	-0.06573179
201	0xbc85c3f3	-0.016328787
202	0x3d43a3e8	0.047763735
203	0xbd0c91dc	-0.03431879
204	0x3c015a3d	0.00789505
205	0xbcdceffc	-0.026969902
206	0xbe57b86b	-0.21066444
207	0xbc1334de	-0.0089847725
208	0x3cb90017	0.02258305
209	0xbc3ae623	-0.011407408
210	0x3e6a9e77	0.22912012
211	0xbe1a8e7c	-0.15093416
212	0x3e6c4030	0.2307136
213	0xbd07fa7c	-0.033197865
214	0xbc32a060	-0.010902494
215	0x3d4a99b7	0.049463
216	0x3d26f58f	0.040761527
217	0x3c1a2041	0.009407104
218	0xbd71288b	-0.058876555
219	0xbc03c8e5	-0.008043502
220	0x3bbcf370	0.0057663247
221	0xbbaaabc4	-0.0052084643
222	0xbe71cebb	-0.23614018
223	0xbca29e0e	-0.019850757
224	0x3d9adfab	0.075621925
225	0x3de83145	0.113375224
226	0x3da8e78a	0.082472876
227	0xbcfec92f	-0.031101791
228	0xbdaa8214	-0.08325592
229	0xbe300dd6	-0.17192778
230	0x3d6920e1	0.05691612
231	0x3d81bdb1	0.06335009
232	0xbd19e285	-0.03756954
233	0xbc4143e5	-0.0117959725
234	0x3d1875e6	0.03722181
235	0x3cc74d3c	0.02432882
236	0x3d802d4d	0.062586404
237	0x39971125	0.00028813738
238	0x3d2601b0	0.040528953
239	0xbbb00a47	-0.005372319
240	0x3e66385f	0.22482441
241	0xbb1cf960	-0.002395235
242	0x3dbce1c5	0.092227496
243	0xbdfc3313	-0.12314429
244	0x3dcd7d7c	0.100337
245	0xbaa7f863	-0.0012815114
246	0x3cbc07df	0.022952972
247	0xbdae2e27	-0.085048966
248	0x3d985b1c	0.07439253
249	0xbe31d0e3	-0.1736484
250	0xb891f75a	-6.9602116e-05
251	0x3d9f4436	0.07776682
252	0xbd479648	-0.048727304
253	0x3de8d803	0.11369326
254	0xbdb479d6	-0.08812301
255	0x3ce88899	0.028385447

4.bias f4 [64]
0	0xbd218c1c	-0.03944026
1	0xbdd2053d	-0.102549054
2	0x3d46fe29	0.04858223
3	0x3cb97a22	0.022641245
4	0xbcca1edb	-0.024672916
5	0xbc44efbb	-0.012020047
6	0x3d1a20e4	0.037629023
7	0x3c42edb0	0.011897489
8	0xbdbd9f8d	-0.092589475
9	0xbe06f05c	-0.13177627
10	0xbe2d4ca1	-0.16923763
11	0x3ca3a7fb	0.01997756
12	0x3e3017b1	0.17196538
13	0xbe20f8b1	-0.15719868
14	0xbd92e0f2	-0.07171811
15	0x3dc4c0aa	0.0960706
16	0xbda777a1	-0.08177114
17	0xbbb3ea54	-0.0054905806
18	0xbe096d6c	-0.13420647
19	0x3d80551d	0.06266234
20	0xbe20d25d	-0.15705247
21	0xbdb34b56	-0.087546036
22	0xbe1cf891	-0.15329196
23	0xbd8932d2	-0.06699146
24	0xbcc345ad	-0.023836935
25	0xbd7b761f	-0.061391946
26	0xbda57a70	-0.08079994
27	0xbd1b2711	-0.037879054
28	0xbe3d2c67	-0.1847397
29	0xbdbc2f76	-0.0918874
30	0xbdd62928	-0.10457069
31	0xbe0280cd	-0.12744446
32	0x3da3cd04	0.07998088
33	0x3dcd803f	0.100342266
34	0xbd7c782d	-0.061638046
35	0xbd3327e5	-0.04373922
36	0x3dd16e89	0.10226161
37	0xbdbb48a5	-0.09144715
38	0x3c79683e	0.015222607
39	0x3de94951	0.11390937
40	0xbdcfcb2f	-0.10146176
41	0xbe042ff4	-0.12908918
42	0xbcea98d4	-0.028637327
43	0xbdc468d1	-0.09590305
44	0xbe0772d8	-0.13227403
45	0xbde80dc9	-0.11330754
46	0xbe0088eb	-0.1255223
47	0x3d5f849b	0.05456982
48	0x3df1445b	0.11780616
49	0x3c3b6db2	0.011439728
50	0xbb6f9604	-0.0036557922
51	0xbdc0a7c0	-0.09406996
52	0x3d52dcf9	0.051480267
53	0xbc8e5613	-0.017375028
54	0xbd202bf3	-0.039104413
55	0xbda4e45c	-0.080513686
56	0xbd8f8b3c	-0.07008979
57	0xbd93c713	-0.07215705
58	0xbdbbe1fc	-0.091739625
59	0x3cf5da7f	0.030011414
60	0xbd9bb464	-0.07602766
61	0xbde29205	-0.11063007
62	0x3dca05d4	0.09864393
63	0x3d82ae1a	0.063808635

6.weight f4 [64]
0	0x3f70c3ba	0.94048655
1	0x3f7ed550	0.9954424
2	0x3f6baed5	0.9206365
3	0x3f70f29c	0.9412019
4	0x3f6eba9f	0.9325351
5	0x3f649143	0.8928415
6	0x3f6507af	0.8946485
7	0x3f6f6387	0.9351124
8	0x3f73df58	0.9526267
9	0x3f730ea5	0.9494422
10	0x3f82f7c8	1.0231867
11	0x3f70bb34	0.9403565
12	0x3f6a90f0	0.9162741
13	0x3f855517	1.0416592
14	0x3f84faaa	1.0388997
15	0x3f722223	0.9458334
16	0x3f7310e5	0.94947654
17	0x3f78cbe9	0.9718614
18	0x3f79ebde	0.9762553
19	0x3f70a075	0.9399484
20	0x3f6d5d72	0.9272071
21	0x3f81f48f	1.0152758
22	0x3f846396	1.0342891
23	0x3f7dac1a	0.9909073
24	0x3f7d13e9	0.98858505
25	0x3f69dbc3	0.91350955
26	0x3f7051b2	0.9387466
27	0x3f78a8c3	0.9713251
28	0x3f75ddf9	0.9604183
29	0x3f5e43e2	0.8682233
30	0x3f8562c4	1.0420766
31	0x3f814dc2	1.0101855
32	0x3f697b4f	0.9120378
33	0x3f64a465	0.89313346
34	0x3f735f9b	0.9506776
35	0x3f6a1bfb	0.91448945
36	0x3f5cffb2	0.8632766
37	0x3f80835c	1.0040088
38	0x3f6d8188	0.92775774
39	0x3f6c3dc9	0.92281777
40	0x3f81025a	1.0078843
41	0x3f823b6d	1.0174385
42	0x3f6db8c6	0.92860067
43	0x3f7ab577	0.97933143
44	0x3f8640d7	1.0488538
45	0x3f6ce8ce	0.9254273
46	0x3f83009a	1.0234559
47	0x3f694b36	0.9113039
48	0x3f67c7b5	0.90539104
49	0x3f88b0ad	1.0678917
50	0x3f864494	1.0489678
51	0x3f83e017	1.0302762
52	0x3f6d1a69	0.92618424
53	0x3f720ef8	0.9455409
54	0x3f707b9e	0.93938625
55	0x3f64059e	0.8907107
56	0x3f7cba0f	0.987214
57	0x3f83e046	1.0302818
58	0x3f83dd71	1.0301954
59	0x3f6ce822	0.92541707
60	0x3f7aec50	0.98016834
61	0x3f817c18	1.0115995
62	0x3f61823c	0.88089347
63	0x3f6598ee	0.8968648

6.bias f4 [64]
0	0xbe00e562	-0.12587503
1	0xbd3e3a3e	-0.046442263
2	0xbe01ddee	-0.12682316
3	0x3d90a2a5	0.07062272
4	0xbdfb3890	-0.12266648
5	0x3d3f7b41	0.046748403
6	0xbcdf4140	-0.027252793
7	0x3bf94ded	0.0076081664
8	0xbd413003	-0.04716493
9	0xbda9f62d	-0.082989074
10	0xbd885b5f	-0.06658053
11	0x3d37d724	0.04488291
12	0xbd946a73	-0.07246866
13	0xbd191a9f	-0.037378903
14	0xbda3f015	-0.080047764
15	0x3e23988b	0.1597616
16	0xbdbbf3d8	-0.09177369
17	0xbda1e12f	-0.079042785
18	0xbd3bbf2a	-0.045836605
19	0x3d949292	0.072545186
20	0xbddc9eb9	-0.107724614
21	0xbd9cdf23	-0.076597475
22	0xbd5c45e6	-0.053777598
23	0xbd7c5a23	-0.0616094
24	0xbd942cb8	-0.07235092
25	0xbdaf173f	-0.08549356
26	0xbd212c3b	-0.039348822
27	0xbdc1279f	-0.09431385
28	0xbd8bb493	-0.06821551
29	0xbdf7bff6	-0.120971605
30	0xbd82cbe8	-0.06386548
31	0xbd70900a	-0.058731116
32	0x3d7ce144	0.061738268
33	0x3dffc803	0.12489321
34	0xbe24b453	-0.16084413
35	0x3d0fba84	0.035089985
36	0xbd699ae0	-0.057032466
37	0xbdb4689d	-0.08809016
38	0xbddc4cd7	-0.107568435
39	0x3d17a24a	0.037020005
40	0xbdd812f9	-0.10550494
41	0xbd93b67d	-0.07212541
42	0xbdd9b68d	-0.10630522
43	0xbd89ed83	-0.06734755
44	0xbd2f2e54	-0.04276879
45	0xbdf49252	-0.11941971
46	0xbda04c28	-0.07827026
47	0xbdbb4128	-0.09143287
48	0xbd5905ea	-0.052984156
49	0xbdd4139b	-0.10355302
50	0xbde69100	-0.11258125
51	0xbda55edc	-0.080747336
52	0x3d4f4faf	0.0506131
53	0x3e11f419	0.14253272
54	0xbd99eb0f	-0.07515537
55	0xbde0fd0d	-0.109857656
56	0xbd3e0861	-0.04639471
57	0xbd582a1f	-0.052774545
58	0xbe0432db	-0.12910025
59	0xbe093e80	-0.13402748
60	0xbda24b10	-0.07924473
61	0xbd5ac949	-0.053414617
62	0xbd481fed	-0.04885857
63	0xbc09757d	-0.008389828

6.running_mean f4 [64]
0	0x3de1332f	0.109960906
1	0x3dc131d6	0.094333336
2	0x3f8fe429	1.1241504
3	0x3e62214c	0.22083014
4	0x3e577c5e	0.21043536
5	0x3f03e1c3	0.5151636
6	0x3f4056fd	0.75132734
7	0x3e397983	0.1811276
8	0x3e0ec6cf	0.13943027
9	0x3dc9e4a7	0.09858065
10	0x3de055c8	0.109538615
11	0x3f190efa	0.5978848
12	0x3f9f91e2	1.2466395
13	0x3dfd9f4d	0.123839
14	0x3debdc63	0.11516645
15	0x3ee2abd7	0.44271728
16	0x3da42ab9	0.08015961
17	0x3e19c38d	0.15016003
18	0x3db3cc13	0.087791584
19	0x3f283443	0.65704745
20	0x3de9f874	0.11424342
21	0x3df3508f	0.118806
22	0x3e012560	0.12611914
23	0x3ded0654	0.115734726
24	0x3e0f54f1	0.13997246
25	0x3de4a433	0.11164131
26	0x3e1cb23e	0.15302369
27	0x3e22ce5c	0.15899032
28	0x3df5351c	0.119730204
29	0x3ec0ad19	0.37632063
30	0x3e110a89	0.14164175
31	0x3dcb63d3	0.09931149
32	0x3eb739ac	0.35786188
33	0x3ea85e43	0.32884416
34	0x3e1a434a	0.15064731
35	0x3f2fc6eb	0.686629
36	0x3f2bf35a	0.671682
37	0x3e008442	0.12550452
38	0x3f1b4e5f	0.6066646
39	0x3f333724	0.7000601
40	0x3e1ef931	0.15524746
41	0x3db67ce3	0.08910539
42	0x3dc3f226	0.095676705
43	0x3e1f6590	0.15566087
44	0x3de628d6	0.112382576
45	0x3d9e4b6f	0.077292316
46	0x3e124ade	0.14286372
47	0x3f5e676b	0.86876553
48	0x3f459063	0.7717344
49	0x3df11557	0.117716484
50	0x3de4649f	0.111520045
51	0x3dfce2c3	0.12347939
52	0x3f337bee	0.70110977
53	0x3e3b670f	0.18301032
54	0x3dc4d125	0.09610204
55	0x3ead808c	0.33887136
56	0x3e041e12	0.12902096
57	0x3e01556a	0.12630239
58	0x3def77c7	0.116927676
59	0x3e590906	0.21194848
60	0x3e0ebdec	0.13939637
61	0x3e08f6bd	0.13375373
62	0x3f34c28d	0.7060936
63	0x3ef81b06	0.48458117

6.running_var f4 [64]
0	0x3e798fc8	0.24371254
1	0x3e354483	0.17701916
2	0x3e6c9221	0.23102619
3	0x3e7edff1	0.24890114
4	0x3f1f6993	0.6227047
5	0x3f05c84a	0.5225874
6	0x3f26eb38	0.65202665
7	0x3eb1730a	0.3465808
8	0x3eafe8bd	0.34357253
9	0x3e627144	0.2211352
10	0x3e60dbbe	0.21958825
11	0x3eceb192	0.4036985
12	0x3e82efd5	0.25573602
13	0x3e8bde85	0.27318206
14	0x3e742f89	0.23846258
15	0x3f670192	0.9023677
16	0x3e19c04b	0.1501476
17	0x3ecd20b4	0.40064013
18	0x3e46e16d	0.1942193
19	0x3ee12aae	0.43977875
20	0x3e8f4bde	0.2798757
21	0x3e8fa22c	0.28053415
22	0x3e90d257	0.28285477
23	0x3e882a95	0.26594988
24	0x3eb7f4e4	0.35929024
25	0x3e83c973	0.2573963
26	0x3edefcbe	0.43552202
27	0x3edc4d1c	0.4302758
28	0x3e923991	0.28559545
29	0x3ec081ec	0.37599123
30	0x3eba9c28	0.36447263
31	0x3e379e0f	0.17931388
32	0x3e32cd2c	0.1746108
33	0x3f016997	0.5055174
34	0x3ec69129	0.38782623
35	0x3f1cf8b7	0.6131701
36	0x3f09d6c2	0.5384332
37	0x3e966750	0.29375696
38	0x3ed4ad14	0.41538298
39	0x3ef61918	0.4806602
40	0x3ecd724f	0.40126273
41	0x3e2383bb	0.1596822
42	0x3e309aaf	0.17246507
43	0x3ee6681d	0.45001307
44	0x3e7016b6	0.23446164
45	0x3e0bd7d6	0.13656554
46	0x3ec692bd	0.38783827
47	0x3f0a9688	0.5413594
48	0x3f1e7063	0.6189024
49	0x3e814db3	0.25254592
50	0x3e6ac6ed	0.22927447
51	0x3e890375	0.2676045
52	0x3f0f9e13	0.5610058
53	0x3eda5e04	0.42649853
54	0x3e64ec06	0.22355661
55	0x3ea6db27	0.32589075
56	0x3ea61a07	0.32441732
57	0x3e981951	0.29706815
58	0x3e839cbc	0.25705516
59	0x3f24e3d3	0.6441013
60	0x3eb72345	0.35769096
61	0x3ea827b6	0.32842797
62	0x3ef2a15f	0.4738874
63	0x3ed4944a	0.41519386

8.weight f4 [32, 64]
0	0x3d636a45	0.05552127
1	0x3d608959	0.054818485
2	0xbd69d75f	-0.05709016
3	0xbc9c3bc0	-0.01907146
4	0x3b88e22c	0.0041773524
5	0x3d1f66bd	0.03891634
6	0xbd9e8678	-0.07740492
7	0xbca61811	-0.020275148
8	0x3d5bdd5e	0.05367791
9	0x3dac7a80	0.084218025
10	0x3dbbf601	0.09177781
11	0xbe1fb512	-0.15596417
12	0xbd754279	-0.059877846
13	0x3de946a3	0.11390426
14	0x3e2b94f4	0.1675604
15	0x3da116f2	0.078657046
16	0xbd033585	-0.032033462
17	0x3d723252	0.05913002
18	0x3da0c8e6	0.07850818
19	0xbd992455	-0.07477633
20	0x3c8c758b	0.017145893
21	0x3c49128d	0.012272489
22	0x3e110b28	0.14164412
23	0xbd624710	-0.05524355
24	0x3d66f1e2	0.05638302
25	0x3b0ccde3	0.0021485023
26	0xbd0a81d6	-0.033815227
27	0x3dee0f4f	0.11624014
28	0x3e160edb	0.14654104
29	0xbd6c96da	-0.05776105
30	0x3d92c1d5	0.07165877
31	0xbd37f78a	-0.044913806
32	0xbd475bef	-0.04867166
33	0x3cb64ac3	0.022252446
34	0x3d684c77	0.056713548
35	0xbd09a8d4	-0.033608273
36	0xbd93429c	-0.07190439
37	0x3c381b49	0.011236974
38	0xbcb8b3b6	-0.02254663
39	0xbd4fadf2	-0.050702997
40	0x3e05d255	0.13068517
41	0xbd884412	-0.066536084
42	0x3e0d3050	0.13787961
43	0x3dd8f115	0.10592858
44	0xbd0a46bd	-0.033758868
45	0x3c53743e	0.012906132
46	0xbcac380b	-0.021022817
47	0xbd88809d	-0.06665156
48	0x3d958a2c	0.07301745
49	0x3e15b7a7	0.14620839
50	0x3d498afb	0.049204808
51	0x3e0865a3	0.13320021
52	0xbd852de6	-0.06502895
53	0x3d556235	0.05209561
54	0xbd5d798b	-0.05407099
55	0xbb89c540	-0.0042044222
56	0xbcfa049c	-0.030519776
57	0x3d2e23a0	0.042514443
58	0xbc468d2e	-0.012118621
59	0xbce5531d	-0.027993733
60	0xbbe6c88c	-0.00704295
61	0x3e217fc1	0.1577139
62	0x3d8d8cc9	0.06911618
63	0xbe393f1c	-0.1809048
64	0xbe051345	-0.12995632
65	0xbe1496af	-0.14510606
66	0xbd033a7d	-0.0320382
67	0xbca0430c	-0.01956322
68	0x3cf4c5a7	0.029879404
69	0xba6eba1a	-0.0009106711
70	0xbb802214	-0.0039103124
71	0xb9ea621a	-0.0004470505
72	0x3d964aa6	0.07338457
73	0xbdd04fd0	-0.10171473
74	0x3c32adc8	0.0109056905
75	0xbd3486ed	-0.044073988
76	0xbd3317f4	-0.043724015
77	0xbd82ea45	-0.063923396
78	0xbcd8bf74	-0.02645848
79	0xbd5fc409	-0.054630313
80	0xbe0b2282	-0.13587382
81	0xbe1c901c	-0.15289348
82	0xbcd46b95	-0.025930205
83	0x3ab0a85d	0.001347791
84	0x3d245d63	0.040128123
85	0xbddd42f3	-0.10803785
86	0xbdaadc46	-0.08342795
87	0xbddb3fef	-0.10705554
88	0x3d9c9965	0.07646445
89	0xbd59bc94	-0.053158358
90	0xbdabcb42	-0.08388378
91	0xbc339928	-0.010961808
92	0xbdaae171	-0.08343781
93	0x3d378cf5	0.04481216
94	0xbe0cfaea	-0.13767591
95	0xbe003941	-0.1252184
96	0x3ca24116	0.019806426
97	0xbc3518c5	-0.011053269
98	0xbe0c692b	-0.13711993
99	0x3c4b2b96	0.012400528
100	0xbd2cd139	-0.042191718
101	0xbe015e58	-0.12633646
102	0xbb8a6036	-0.004222895
103	0xbc619744	-0.013768975
104	0x3ce9e39d	0.028550917
105	0xbdcacf56	-0.099028274
106	0xbaf7a64e	-0.0018894167
107	0x3ccafaa3	0.024777716
108	0xbdf551c6	-0.11978488
109	0xbdca5042	-0.09878589
110	0xbdae67a8	-0.085158646
111	0xbb96d57a	-0.004603085
112	0xbcded5df	-0.027201591
113	0xbdb824fa	-0.08991428
114	0xbda0d271	-0.078526385
115	0xbd387185	-0.045030136
116	0xbd05fc6c	-0.03271143
117	0x3d820284	0.06348136
118	0xbdb97bcd	-0.09056816
119	0x3c8a401d	0.016876275
120	0xbe148dd4	-0.14507228
121	0xbc12c040	-0.008956969
122	0xbd02f9b4	-0.031976417
123	0x3d8ecce7	0.06972676
124	0xbd9ad17a	-0.07559486
125	0x3c934e62	0.017981712
126	0xbc16252e	-0.009164138
127	0x3d24d440	0.04024148
128	0x3b82db57	0.0039934325
129	0x3e0fd7d4	0.14047176
130	0xbe15d1e5	-0.1463085
131	0xbd85c041	-0.0653081
132	0x3d9b90e3	0.07595994
133	0xbd6d38d1	-0.057915512
134	0xbc7cf96a	-0.015440324
135	0x3d968ab4	0.07350674
136	0x3de29c0e	0.11064921
137	0xbd85a7ef	-0.065261714
138	0x3d23e426	0.0400125
139	0xbdbbe1e4	-0.091739446
140	0xbcab6fc6	-0.020927321
141	0xbcf41a3b	-0.029797664
142	0x3c875711	0.016521009
143	0xbd7e1d56	-0.062039696
144	0x3ced9bd4	0.029004969
145	0x3d077777	0.033072915
146	0xbc0a615c	-0.008446064
147	0x3bb59ef4	0.0055426303
148	0xbc9c1cf7	-0.01905678
149	0x3de4e7da	0.11177035
150	0x3e09f79a	0.13473359
151	0xbb51e187	-0.0032025294
152	0x3d964760	0.073378325
153	0x3d53e767	0.051734354
154	0x3d769801	0.060203556
155	0x3d926e3b	0.07149931
156	0x3e0d09d9	0.13773288
157	0x3b409e1c	0.0029391116
158	0xbd92e50f	-0.07172596
159	0x3dcbdc56	0.09954135
160	0x3d12009f	0.035645124
161	0x3d5002d4	0.050783947
162	0x3aa09ada	0.0012253181
163	0x3cb6d6a0	0.022319138
164	0xbc7e308c	-0.015514504
165	0x3df94c1d	0.121727206
166	0xbe085600	-0.13314056
167	0x3d9e6014	0.07733169
168	0x3d9e571d	0.07731459
169	0x3e10adb8	0.14128768
170	0x3ad513f6	0.0016256559
171	0x3df99ece	0.12188493
172	0x3db90380	0.09033871
173	0x3c1fbb2d	0.009749216
174	0xbd30bd6b	-0.043149393
175	0xbe09e2b0	-0.1346538
176	0x3d462886	0.04837849
177	0x3c45cf3e	0.012073336
178	0x3e04bb93	0.12962179
179	0x3e1a842f	0.15089487
180	0xbd8731af	-0.06601273
181	0xbc6691a7	-0.014072812
182	0x3d40c931	0.04706687
183	0xbd53ec3b	-0.05173896
184	0x3cb50593	0.022097385
185	0x3dee84b0	0.11646402
186	0x3d9164ce	0.07099305
187	0x3d5d9019	0.0540925
188	0x3c57641a	0.013146425
189	0xbd84bbce	-0.064811334
190	0x3c42c44c	0.011887621
191	0xbd3bf499	-0.045887563
192	0xbd988728	-0.07447654
193	0x3bd43689	0.0064762277
194	0xbc6e66f0	-0.014550909
195	0x3c735ae6	0.014853215
196	0xbc7f6828	-0.015588798
197	0xbc2e04c8	-0.010621257
198	0x3d2987bd	0.041389216
199	0xbd6a05b2	-0.057134338
200	0xbcbdead3	-0.023183262
201	0x3d51b07e	0.051193707
202	0x3d6a706a	0.057236113
203	0xbba5195a	-0.0050384225
204	0xbb6e8ae4	-0.0036398703
205	0x3ca60f06	0.020270836
206	0xbbbf924e	-0.0058462983
207	0x3d418c08	0.047252685
208	0x3d83d460	0.06436992
209	0xbd8f3426	-0.069923684
210	0xbd9a6fb7	-0.07540839
211	0x3cebfec8	0.028808013
212	0xbd5b208c	-0.053497836
213	0xbcf33fcb	-0.029693505
214	0xbade4785	-0.001695857
215	0xbcd25320	-0.025674403
216	0xbd35986a	-0.044334807
217	0xbd0201d1	-0.031740014
218	0x3d292248	0.04129246
219	0xbdaf82f0	-0.08569896
220	0xbdc8aaed	-0.097982265
221	0xbbdff338	-0.006834414
222	0xbccfcdd0	-0.025366694
223	0xbd140995	-0.03614195
224	0xbd0338e0	-0.032036662
225	0xbd45ab06	-0.048258804
226	0x3c3b5820	0.011434585
227	0xbc21d5d6	-0.009877643
228	0xbc3f1a3c	-0.01166397
229	0x3da2ec3b	0.07955214
230	0xb9653b6b	-0.00021861277
231	0x3cdfc3f5	0.02731512
232	0x3c9dd04b	0.01926436
233	0xbd9ac0ed	-0.07556329
234	0x3d1fda26	0.039026402
235	0xbe0ec678	-0.13942897
236	0xbcaf2c9a	-0.021383572
237	0x3a71b11a	0.00092198106
238	0x3b2e66dc	0.0026611602
239	0xbb2284ad	-0.002479832
240	0x3a455bc5	0.00075286283
241	0xba9ec640	-0.0012113526
242	0xbca438c9	-0.020046609
243	0xbc826618	-0.015917823
244	0xbd1fcc0d	-0.039012957
245	0x3d5a676e	0.053321294
246	0x394622fc	0.00018895784
247	0xbc57b144	-0.013164822
248	0xbd6002ab	-0.054690044
249	0x3b227c46	0.002479331
250	0xbd848717	-0.06471079
251	0xbd09f8e8	-0.03368464
252	0x3d51cad1	0.05121881
253	0x3a67cfa7	0.00088428933
254	0xbcb8a04d	-0.022537375
255	0x3cc41ebd	0.023940438

8.bias f4 [32]
0	0x3d8d16a1	0.06889082
1	0x3e29993c	0.1656236
2	0xbd115812	-0.03548438
3	0x3e8408f6	0.25788087
4	0x3eab1280	0.33412552
5	0x3e37115d	0.17877717
6	0x3e1eab13	0.15494947
7	0xbdc8aa7d	-0.09798143
8	0x3e0e2f4d	0.13885231
9	0x3e7b96fc	0.24569315
10	0x3d372bbe	0.04471945
11	0xbc9e4606	-0.0193205
12	0xbddea2ed	-0.108709194
13	0x3d362ff0	0.04447931
14	0x3e742f16	0.23846087
15	0xbd7b317a	-0.06132648
16	0x3c85c8f6	0.016331177
17	0x3e72a680	0.23696327
18	0x3e905503	0.2818986
19	0x3e343c7e	0.17601201
20	0xbd865138	-0.0655846
21	0xbd43ab2f	-0.047770675
22	0xbc496628	-0.012292422
23	0xbdfc2ba0	-0.12313008
24	0x3d94fff5	0.072753824
25	0x3e6cf4b5	0.23140223
26	0x3d51c40b	0.05121235
27	0xbd1d6bd0	-0.038432896
28	0x3e5676e4	0.2094379
29	0x3dae7828	0.08519012
30	0xbc896b86	-0.016774904
31	0xbcfbc49d	-0.030733401

10.weight f4 [32]
0	0x3f9476dd	1.1598774
1	0x3f9260a2	1.143574
2	0x3f92b236	1.1460636
3	0x3f8ef483	1.1168369
4	0x3f94fd02	1.1639712
5	0x3f90801f	1.12891
6	0x3f87e39a	1.0616333
7	0x3f935791	1.1511098
8	0x3f898a06	1.0745246
9	0x3f8dabb2	1.1068022
10	0x3f8f4ad0	1.1194706
11	0x3f8fb9f9	1.1228629
12	0x3f92e963	1.1477474
13	0x3f965ab1	1.1746427
14	0x3f8c42e3	1.0957912
15	0x3f923107	1.1421212
16	0x3f923a92	1.1424124
17	0x3f8b9f66	1.090802
18	0x3f85a5a0	1.044117
19	0x3f80fead	1.0077721
20	0x3f955c73	1.1668838
21	0x3f926595	1.143725
22	0x3f901e48	1.1259241
23	0x3f960ec1	1.1723253
24	0x3f90b8b8	1.1306372
25	0x3f93dc6c	1.1551642
26	0x3f905331	1.1275388
27	0x3f9348cb	1.150659
28	0x3f91153d	1.1334606
29	0x3f7bb3ee	0.98321426
30	0x3f90362c	1.1266532
31	0x3f8fd751	1.1237584

10.bias f4 [32]
0	0xbe24a7ab	-0.16079585
1	0x3e418609	0.18898787
2	0xbe05f8cb	-0.13083188
3	0x3defffcd	0.11718712
4	0x3e208184	0.15674406
5	0x3e118d15	0.14213975
6	0x3de88775	0.113539614
7	0xbe149d86	-0.14513215
8	0x3e0e610a	0.13904205
9	0x3def8167	0.116946034
10	0xbdd6059e	-0.1045029
11	0xbde9d073	-0.11416712
12	0xbe0463b7	-0.12928663
13	0xbe314780	-0.17312431
14	0x3e0030e1	0.12518646
15	0xbe036714	-0.1283229
16	0xbe076395	-0.13221581
17	0x3dd8e96b	0.10591396
18	0x3dce4050	0.100708604
19	0x3dc7268a	0.097241476
20	0xbe212171	-0.15735413
21	0xbe083b64	-0.13303906
22	0xbddb709b	-0.10714837
23	0xbe3d0965	-0.18460615
24	0xbdea12fc	-0.11429402
25	0x3e4fbeed	0.20287676
26	0xbde5c8f0	-0.112199664
27	0xbe0a3913	-0.13498335
28	0x3e149b08	0.14512265
29	0x3dd4852a	0.103769615
30	0xbdde2834	-0.10847512
31	0xbddce527	-0.10785895

10.running_mean f4 [32]
0	0x3ef627a3	0.48077115
1	0x3f59f9b9	0.8514667
2	0x3ef49905	0.47772995
3	0x3efbc0d6	0.4917056
4	0x3eec450c	0.4614643
5	0x3f29082f	0.6602811
6	0x3f42e756	0.7613424
7	0x3ef87fa9	0.48534897
8	0x3f2023cb	0.62554616
9	0x3f2913c9	0.66045815
10	0x3f01fea2	0.50779164
11	0x3eca5502	0.3951798
12	0x3ed6942b	0.41909918
13	0x3ee09160	0.43860912
14	0x3ebb4fcd	0.3658432
15	0x3ef57698	0.47942042
16	0x3ef5487e	0.4790687
17	0x3f3617e8	0.7113023
18	0x3f300736	0.68761003
19	0x3f384f7a	0.7199627
20	0x3ee8ae6b	0.4544557
21	0x3ef80e78	0.4844854
22	0x3ed86e92	0.42271858
23	0x3ef7a771	0.48369935
24	0x3eef2b2e	0.4671263
25	0x3f1f43df	0.6221294
26	0x3efd9d7b	0.4953421
27	0x3ee18b8e	0.44051784
28	0x3f5a7a47	0.8534283
29	0x3f1add03	0.6049349
30	0x3edcb51f	0.43106934
31	0x3edeefe4	0.43542397

10.running_var f4 [32]
0	0x407ab8f6	3.9175391
1	0x3d89c478	0.067269266
2	0x40805846	4.0107756
3	0x3cc19589	0.023630874
4	0x3cbbe0e0	0.022934377
5	0x3d3414a5	0.043965
6	0x3d779f95	0.060454924
7	0x407b607d	3.9277642
8	0x3d7e23fb	0.062046032
9	0x3d3dfbae	0.0463826
10	0x40925bea	4.57372
11	0x40339d98	2.8064938
12	0x4041d57d	3.0286553
13	0x404f3db6	3.2381415
14	0x3ce95fb3	0.028488016
15	0x40803602	4.0065928
16	0x407ed624	3.98182
17	0x3d493ab0	0.049128234
18	0x3d8b6af9	0.06807513
19	0x3d764fa7	0.060134556
20	0x4069539b	3.6457279
21	0x4082036f	4.062919
22	0x4044b039	3.0732558
23	0x407b5bd8	3.9274807
24	0x4074ff2c	3.8280745
25	0x3d1a066f	0.03760379
26	0x408c7eb8	4.3904686
27	0x4054ed5a	3.3269868
28	0x3d984c78	0.0743646
29	0x3e8f091e	0.27936643
30	0x405429d9	3.3150542
31	0x4050ef18	3.2645931
