nn_model_features.pth (torch, 16748 bytes, 6 tensors)

weight f4 [64, 14]
000000 52 ce 5f 3e e1 8c 60 be 68 54 13 be 50 57 cf bd
       0.21856049 -0.21928741 -0.14387667 -0.101240754
000010 8e 0d 4b 3e b6 e3 57 3d 80 f8 8f be 55 bc 21 3e
       0.1982939 0.052707396 -0.28119278 0.15794499
000020 d2 ed dd bd 41 08 53 3e 82 82 58 bd 36 0b 8c be
       -0.10836376 0.20608617 -0.052858837 -0.27352303
000030 3b 23 46 be af b9 db 3d c6 7a 71 3e 77 69 65 bb
       -0.19349377 0.10728776 0.2358199 -0.003500549
000040 7d 4c a8 3d f6 7d 84 3e 4d 63 82 3e cf 00 74 3e
       0.08217714 0.2587735 0.25466385 0.23828433
000050 fa 88 f8 bd 3c 51 2d 3e b9 1e 96 3e 58 06 5c 3d
       -0.12135501 0.1692552 0.29320315 0.053716987
000060 ae dc af bd 14 4e d6 bd 1b 34 e3 ba 7e 6e 2e be
       -0.08587013 -0.10464111 -0.0017334254 -0.17034337
000070 fe 75 49 3e ea 78 4e 3e e9 e8 86 3e 73 af 7c 3e
       0.19673917 0.20163313 0.2634957 0.24676304
000080 5e da 89 3e c1 71 08 be 5e 80 ac 3c 1b 77 c7 bd
       0.26924413 -0.13324644 0.021057304 -0.097395144
000090 b6 3d 8b 3e 38 b8 2b 3e 3a 7f 8d 3d a5 ee 1a 3e
       0.2719552 0.16769493 0.06909032 0.15130098
0000a0 f9 cf 66 bd 09 d5 0e be 9c db 14 bd c4 e3 8b 3d
       -0.056350682 -0.13948454 -0.03634225 0.06830552
0000b0 00 0d df bb 0d f3 7f be 4d 93 20 be 50 56 fc 3d
       -0.0068069696 -0.2499506 -0.15681191 0.1232115
0000c0 ba 1c 71 be 6c 34 f8 bd 38 30 28 3d 48 77 b4 3d
       -0.23546115 -0.12119374 0.04106161 0.088118136
0000d0 07 5f 82 3e 7c 89 80 3d c0 5c 22 3d de 43 fb bd
       0.25463125 0.06276223 0.039639235 -0.12268804
0000e0 e0 8c d6 3d d3 00 87 3d e8 34 41 3e a8 94 bc bd
       0.104760885 0.06591954 0.18867838 -0.092080414
0000f0 8e e8 2a be ad 55 a5 3e a3 42 a4 bd d4 fc 8e 3d
       -0.16690275 0.32291928 -0.080205224 0.06981817
000100 89 b8 52 bd 45 5f 87 3e de a9 a8 3e 38 22 5a 3e
       -0.051445518 0.26439872 0.32942098 0.21302116
000110 c7 32 17 bc fd ff 9d 3b 99 0f cf bd b2 3a 5f 3e
       -0.009228415 0.004821776 -0.10110397 0.21799734
000120 f4 6b 84 3c eb d5 c0 bd 6d 65 85 3e d3 f9 1a 3d
       0.016164757 -0.094158016 0.26053944 0.037835907
000130 4f 26 66 be 24 7d 82 bd a7 96 a8 bb b1 cc 5c 3e
       -0.22475551 -0.06371525 -0.0051449123 0.21562459
000140 97 16 fc 3d 1a fa a2 bd 1c 89 b6 3d 93 ba 63 3e
       0.12308996 -0.07957859 0.0891287 0.22239141
000150 36 a7 7a 3e db 88 20 be 93 8a e0 bd ee 05 73 bd
       0.24477848 -0.15677206 -0.10963931 -0.059331827
000160 47 77 27 be c0 f5 79 3e bf f0 97 bd 93 3a 61 3e
       -0.16354094 0.24410152 -0.074189655 0.21995
000170 fe b0 f0 3d 5f 3a 14 be c0 59 39 bd 9c d3 40 3e
       0.117525086 -0.14475392 -0.045251608 0.18830723
000180 06 6d 7e 3e 96 ba 50 3e 12 de 0c bd 4e d5 7b 3e
       0.24846277 0.20383677 -0.03439147 0.24593088
000190 23 c0 1e be b9 79 10 3e a5 4a 8f be b5 d5 ff bd
       -0.15502982 0.14108934 -0.27986637 -0.12491933
0001a0 65 75 be bd c8 06 0f be 1e 33 09 be 48 60 40 3e
       -0.09299735 -0.1396743 -0.13398406 0.18786728
0001b0 2e 63 59 be 69 0e 43 3e b2 ae c2 3d ca 13 24 3e
       -0.2122924 0.19048466 0.09505977 0.16023174
0001c0 fa 84 a3 3e ea 8b 44 be f0 df f2 3c ba 3c 29 3e
       0.3193739 -0.19193998 0.029647797 0.16527072
0001d0 22 8c 0b be fa c9 8b bd 50 fb 85 3e 71 cf 9c 3c
       -0.13627675 -0.06825633 0.261683 0.019141885
0001e0 3a 6b 01 be 0c 62 5a 3e a2 2e 9a bd 45 31 9a 3e
       -0.1263856 0.21326464 -0.07528426 0.30115715
0001f0 13 d9 a8 3d 70 54 4a be 2c df 0d be 80 46 f8 bd
       0.082445286 -0.19758773 -0.13854665 -0.12122822
000200 00 5d 02 3b 72 16 17 be bc ab c2 3d d0 94 26 be
       0.0019891858 -0.14754656 0.09505412 -0.16267705
000210 38 ae 51 3e 7c 24 2e 3e dc a8 64 be b4 17 cd bd
       0.20476615 0.17006105 -0.2233004 -0.10014287
000220 0e 0f 4b be 5b 16 6f be 00 b3 04 3c 0e a6 56 3e
       -0.19829962 -0.23348372 0.008099318 0.20961782
000230 17 3b 98 bd d2 d3 ea bd 7d 83 19 be d6 d4 fe bc
       -0.074331455 -0.11466183 -0.14991565 -0.031107347
000240 0a e2 73 3c 19 fc 46 3e 6f b7 6f 3e 80 cc d8 bd
       0.014885435 0.19432105 0.23409818 -0.1058588
000250 65 62 fc 3d ed 12 7c bd aa 31 21 3e 93 8c 06 3d
       0.12323455 -0.061541487 0.15741602 0.032848906
000260 22 76 13 bd e2 99 96 3d ec 8f fd 3d 39 4e be 3b
       -0.036001332 0.073535696 0.123809665 0.0058076647
000270 8b 7c ea bd 2c 02 fc 3d 44 b5 80 bd f2 14 e2 ba
       -0.11449536 0.12305102 -0.06284574 -0.0017248674
000280 74 ac 86 bd bf 81 04 3e f2 60 b4 bd f0 e8 13 3e
       -0.065758616 0.12940119 -0.08807553 0.14444327
000290 cc 20 a2 3c 9e 36 6d be 74 5b ee bd f5 3e 3a bc
       0.01979103 -0.23165366 -0.11638537 -0.011367549
0002a0 95 ee 5d 3e e2 46 d8 3c 0d 83 11 3e 32 59 80 3e
       0.21673043 0.026400987 0.14210148 0.2506805
0002b0 22 58 22 3e e5 60 55 3e 2e f8 e4 3d 1d f1 7f 3d
       0.15853932 0.20837744 0.11180149 0.062485803
0002c0 67 cf 96 3c 70 df 31 3e bd 72 8d 3e 1f 3c 42 be
       0.018409444 0.17370391 0.276266 -0.18968247
0002d0 29 23 33 3e d4 86 0f 3e 59 66 0e 3e 5b 55 33 3e
       0.17493881 0.14016277 0.1390623 0.1751303
0002e0 29 b9 1b 3e 62 d5 1b bd 8c 29 d5 3c 0e 95 71 bd
       0.15207352 -0.038045295 0.026020788 -0.05898004
0002f0 77 da 51 3e 52 2f ef bd 94 55 3f 3e 2f e7 42 be
       0.20493494 -0.116789475 0.18684989 -0.19033502
000300 24 54 36 be 32 6d 63 3e 50 9e 50 3e d0 6c 2d be
       -0.17805535 0.22209623 0.20372891 -0.1693604
000310 ab e2 50 bc 01 b9 05 bd 33 7d a1 3e ca 5a 37 be
       -0.012749354 -0.032647137 0.31540832 -0.17905727
000320 a8 11 04 bc a8 0b d0 3d 39 ed 9c bd e0 a7 74 bd
       -0.00806085 0.10158473 -0.07662434 -0.05973041
000330 2a 8e 47 3e 22 f0 90 3b e4 6a 91 3d 3e 29 88 3e
       0.19487825 0.0044231573 0.07100466 0.26593965
000340 de 46 dd 3d b1 7a dc 3d 5c e1 f7 3d fe 1b b6 3d
       0.108045325 0.10765589 0.12103531 0.08892058
000350 9e 3a 54 bd 9f f1 fc bd b6 d0 2e 3d f7 36 34 3e
       -0.051813714 -0.12350773 0.04267951 0.17599092
000360 b2 f7 15 3e 84 29 4e be 43 75 3b 3e 65 a3 bc 3c
       0.1464527 -0.20133024 0.1830645 0.023027131
000370 37 4a ea 3d 4c f5 30 3d 14 ba 9e 3c f9 32 44 3e
       0.114399366 0.043202683 0.019375838 0.1916007
000380 4e 9d d8 3d 62 63 5d be a5 91 5a 3e 9c 52 2b 3d
       0.105768785 -0.21619943 0.21344621 0.04182683
000390 b5 78 33 be d3 34 c0 3d ac 96 70 3e e9 8c 47 3d
       -0.17526515 0.093850754 0.23494977 0.048718367
0003a0 5f d3 9a bd 41 85 4d be ed 1a 67 be 6c 6a b7 bd
       -0.07559847 -0.20070364 -0.22568865 -0.08955845
0003b0 77 bc 8c be fb 91 b9 3d 75 68 74 be 59 d7 20 bd
       -0.27487537 0.09061047 -0.23867972 -0.03926787
0003c0 38 cb e4 bd 70 8b 23 3e 53 52 6a be 71 dd 36 be
       -0.111715734 0.1597116 -0.22882967 -0.1785791
0003d0 57 d5 c9 bd 6b 0a 52 bc f9 2c 15 be 55 e6 04 bd
       -0.098551445 -0.012819867 -0.14567937 -0.032446224
0003e0 76 60 f3 bc 67 77 c0 3d 9f fb 67 be 13 c0 f1 bd
       -0.029709082 0.09397774 -0.2265458 -0.118042134
0003f0 d1 1f b3 3d 5d e7 1d bd fb 84 a4 3e bd eb 9b bd
       0.08746303 -0.038550723 0.32132706 -0.07613323

bias f4 [64]
000000 36 2e 3d be 88 97 f6 bc b1 04 4c 3e 51 99 78 be
       -0.1847466 -0.030101553 0.19923665 -0.24277236
000010 ff 8d ab 3d d8 a4 e5 3d cf 9d 88 3e cf 91 49 be
       0.08376693 0.11213082 0.26682898 -0.19684528
000020 42 a6 65 3e 48 d9 2c be 57 21 46 be 31 66 73 be
       0.22426704 -0.16879761 -0.19348656 -0.23769452
000030 e8 b2 9a 3d a8 36 93 bb 91 4c 6d bc 6c de c5 3d
       0.07553655 -0.0044925995 -0.014483587 0.09661564
000040 8c 43 3b be 8c 90 76 3e b8 05 8e bd 6c 0b b2 3d
       -0.18287486 0.24078578 -0.069346845 0.08693585
000050 c0 e8 70 3d 7c e4 9f 3e 49 78 75 3e cd aa 6e 3e
       0.058815718 0.31229007 0.23971666 0.23307343
000060 e4 ea 63 3d f5 e3 86 3e 09 f2 47 bd 63 ae 26 be
       0.05564393 0.26345792 -0.048814807 -0.16277461
000070 78 c7 a7 bd 19 0d cb bd 17 45 5d 3e a3 d4 59 be
       -0.081923425 -0.099146076 0.21608387 -0.2127252
000080 4b 99 53 be 37 97 38 3b b5 8a 29 bb e7 d7 32 3e
       -0.20663945 0.0028166303 -0.002587003 0.17465173
000090 98 6e 0a 3e 2b 58 d3 3b 19 b8 20 bd c3 6d 1e 3e
       0.1351875 0.0064497194 -0.03923807 0.15471558
0000a0 e9 95 2e 3e 61 e1 9e 3e 26 ea 49 3e 80 3a 32 3e
       0.17049374 0.31031325 0.19718227 0.17405128
0000b0 6b ef df 3d a5 23 fe 3d 79 1c e9 3d ee b3 05 3e
       0.10934337 0.124091424 0.11382384 0.13056919
0000c0 54 9b 1f 3c bc c0 bb 3d 50 01 fd bd b2 a4 52 3d
       0.009741623 0.091676205 -0.12353766 0.051426597
0000d0 f9 f5 78 bd 44 d4 7c be ef e1 1e 3e c7 cb 08 3d
       -0.060781453 -0.24690348 0.15515874 0.033397462
0000e0 b9 57 83 bd f0 ab 20 be a2 3d a3 3e a1 fc 8a 3e
       -0.06413216 -0.15690589 0.3188296 0.27145866
0000f0 e3 73 bc 3d 2c 8c 98 3e 3c d9 11 3e dd 66 22 bb
       0.09201791 0.29794443 0.14243025 -0.002478055

weight f4 [32, 64]
000000 c8 b1 d8 bc c9 74 1e 3e 1d 7e b1 3d 42 e5 db bd
       -0.02645196 0.15474238 0.08666632 -0.10737087
000010 50 4b 77 3b 51 b4 e9 3d f8 42 0d 3e 5f 43 ab 3b
       0.0037734099 0.11411346 0.13795078 0.005226537
000020 7a 73 80 bc 04 0e 5b bd 45 90 0c 3e 1a 8a 84 3d
       -0.015680064 -0.053480163 0.1372691 0.06471653
000030 a0 2c 94 bd e3 2b 35 bc dc 1b 1d 3e 2b 10 26 3e
       -0.07235074 -0.011057827 0.15342659 0.16217105
000040 d6 ed b1 ba f7 8f 17 3e 8a 07 7c 3e 8a 87 69 3e
       -0.0013574909 0.14801012 0.24612251 0.2280561
000050 6c 3c 32 3e 50 53 fa 3d d3 60 25 3e 01 e6 6b 3d
       0.17405862 0.12222922 0.16150217 0.057592396
000060 e1 0d 75 3d 6a 29 21 bd 38 f8 6e 3e 48 09 ba bd
       0.05982769 -0.039346136 0.23336875 -0.090838015
000070 3c 1e 02 bd 9a b1 3c 3e 53 57 5c 3d d2 b9 f1 3d
       -0.031767115 0.18427125 0.053794216 0.118030205
000080 f4 83 93 bd 0d 09 7d 3c d6 e1 2a 3d 9d da 87 3c
       -0.072029024 0.015444052 0.04171928 0.016583735
000090 d1 1b a4 3c c8 c8 14 3e d1 25 0f bd 64 67 97 3d
       0.020032795 0.14529717 -0.034948174 0.07392767
0000a0 ab 1b de 3d 98 d9 2f 3e ee 5f 3b 3e e0 0a 1a 3e
       0.10845121 0.17172849 0.18298313 0.15043211
0000b0 ab e2 c1 bd 55 a7 65 bd 59 8d 0c 3d 7e 0b be 3d
       -0.094670616 -0.056067783 0.034314487 0.09279536
0000c0 af 3f 23 3e 73 08 0e 3e f4 5f 0f 3e af 4a 24 3e
       0.15942262 0.1387041 0.14001447 0.16044115
0000d0 99 2d 77 3b 1c f1 48 bd 0b aa fa bb 12 09 37 bd
       0.0037716387 -0.049058065 -0.007649665 -0.044686384
0000e0 6d f6 39 3e a6 37 95 3c c8 37 26 3e fc dd 20 3d
       0.1816041 0.018215012 0.16232216 0.0392742
0000f0 09 60 ff 3c 6e 82 12 3e 1e 60 2f 3e 99 f4 49 bd
       0.031173723 0.14307567 0.1712651 -0.049305532
000100 b4 97 f8 3d 6e 80 a3 3d 43 9c 56 bd 90 34 41 bc
       0.1213831 0.079834804 -0.052395117 -0.011792317
000110 db c6 09 3d a5 b6 92 3d 62 81 25 3d d0 ee a4 bd
       0.03363691 0.07163743 0.040406592 -0.08053362
000120 5b 20 ef 3d 80 ae a4 3b 51 3c b1 3c ad e4 88 bd
       0.11676093 0.005025685 0.021635206 -0.066842414
000130 72 7f 01 bd 62 d1 fb 3d 06 23 35 3e d2 53 0a 3e
       -0.031615682 0.12295796 0.17689142 0.13508537
000140 f4 96 88 bd 79 f7 29 3e 59 94 26 3e a8 ee 77 3d
       -0.06669417 0.1659831 0.16267528 0.060530335
000150 0a 94 e0 3d b0 fb a1 3d 56 e8 8c 3d 0d 6d 9c 3d
       0.10965736 0.07909334 0.06880252 0.07637987
000160 68 cb e2 3c 30 bd 43 bc 1e 76 01 bb f2 3b ea 3d
       0.027684882 -0.011946961 -0.0019754241 0.11437215
000170 8e c2 cc bd a7 c1 d5 3d 01 e5 04 3e 0c 0c 00 3e
       -0.09998046 0.10437327 0.12977983 0.12504596
000180 20 ed 3f 3d 4f c4 bc 3d 78 19 99 bb b2 0d 02 bd
       0.046857 0.092171304 -0.0046722256 -0.031751342
000190 73 6a ea bc 17 f2 06 3e 14 bd 93 3d ea 4a 31 3e
       -0.028615212 0.13178287 0.07213798 0.17313734
0001a0 0a e4 b2 3d 80 e5 14 3d c9 0d 05 3e 88 38 d8 3d
       0.08734901 0.03635168 0.1299354 0.105576575
0001b0 39 22 84 3d 14 79 3c 3e f2 75 3d 3e 1b c4 57 3c
       0.0645184 0.18405563 0.18502024 0.013169314
0001c0 59 6e 23 3e a9 12 37 3e 29 31 57 3d 84 c3 10 3d
       0.15960063 0.17878212 0.052537117 0.03534271
0001d0 fa 6b 74 3d 7a 78 c4 bc 18 fd 25 3d be d8 28 bd
       0.059673287 -0.023983229 0.040524572 -0.041222326
0001e0 90 0d ff 3d e4 fe ec 38 2d d0 05 3e 25 68 22 3e
       0.12453759 0.00011300834 0.13067694 0.1586004
0001f0 f0 85 b7 bb d9 f4 80 bd da 3a 0d 3e 64 69 a4 bd
       -0.0056006834 -0.06296701 0.13791981 -0.08027914
000200 77 33 94 3d ba 2b a1 bd 60 25 29 3d c0 e8 45 3b
       0.07236379 -0.07869668 0.04129541 0.0030198544
000210 4e ad f6 bd cd 1d 8c 3c 03 a9 ab 3d 69 8e 0a bb
       -0.12044774 0.017104054 0.08381846 -0.0021142012
000220 58 c8 07 3e 70 73 b8 3d 8e 93 ee bd 16 56 21 bd
       0.13260019 0.09006393 -0.116492376 -0.03938874
000230 59 7e cb bd 87 7f 0e 3e 50 7a a4 3d c0 1b ce bd
       -0.09936208 0.13915835 0.08031142 -0.10063887
000240 bd c1 ce 3d d8 1c 81 bd 91 87 f6 3d 5e 8c bb 3d
       0.100955464 -0.0630433 0.12037576 0.09157632
000250 59 af 78 3c 01 1a 00 be 51 76 ea bd 2d 2a be 3d
       0.015178525 -0.1250992 -0.11448348 0.09285388
000260 fd a3 e9 3d f0 b3 d8 3d 0e f5 38 3e 9c 04 6a bd
       0.114082314 0.10581195 0.18062231 -0.057133302
000270 ec 8e 12 3d 27 dc b2 bd 4f e9 bc 3d 67 ad 87 bd
       0.035780832 -0.08733397 0.092241876 -0.06624871
000280 76 14 8a bd e7 cf c2 bd 19 bb 08 bc b7 63 f9 3c
       -0.06742184 -0.095123105 -0.008345389 0.030443056
000290 de 31 ff bd c2 a8 88 bd 8f e3 4d bd c3 83 ce 3d
       -0.12460683 -0.06672813 -0.050265845 0.10083725
0002a0 7f d1 aa 3d 53 6e 9f bc 3a 8f 3c 3e e2 db 7d 3d
       0.083407395 -0.019461786 0.18414012 0.061977275
0002b0 bb 84 52 3d ab 98 71 bd 9f 48 f4 3c 34 67 cd bd
       0.051396113 -0.058983486 0.029819785 -0.1002945
0002c0 07 66 c7 3d 58 2a b2 3d 95 12 a7 3d e6 90 98 3c
       0.09736257 0.08699483 0.08157841 0.01862378
0002d0 1b 87 a3 3c 08 80 29 bc 65 cf b3 3d 47 7a b7 3c
       0.019961884 -0.010345466 0.08779792 0.022397174
0002e0 62 98 dd bd 61 a7 ba bd 18 ff 87 bd 5e d7 1a bd
       -0.1082008 -0.09113956 -0.06640452 -0.037803046
0002f0 bd 35 da bd 02 03 13 3d 90 cf d4 bd 5a 0b b2 bc
       -0.10654781 0.03589154 -0.10391152 -0.021733928
000300 88 e6 da 3d 40 8e 55 bd 0a c9 81 bd 20 e1 24 3d
       0.106885016 -0.052137613 -0.06337173 0.04025376
000310 98 64 6b bd 00 71 ff ba 74 f5 05 3d b8 97 ce bd
       -0.05746898 -0.0019488633 0.032704785 -0.10087532
000320 c0 bd 16 3d fc 39 ae 3d 32 00 a2 bd 36 66 e8 3d
       0.036802053 0.085071534 -0.079101935 0.1134762
000330 cc 61 98 3d 30 45 5a bc 84 6f 5a 3d f0 e4 de 3c
       0.07440528 -0.01332216 0.053329006 0.027208775
000340 c0 8c ee 3c f8 a1 23 bd 7e 05 9d 3d 58 e6 8e bd
       0.02911985 -0.039949387 0.07667063 -0.06977528
000350 00 cd 6c 3c 38 22 af bc 8c 8b 9c 3d cc 60 8c 3d
       0.014453173 -0.021378621 0.07643804 0.068544
000360 e0 dd f4 bd f0 48 b3 bd 80 7a 8d bd f8 76 80 3d
       -0.11956382 -0.08754146 -0.06908131 0.062726915
000370 22 eb dd 3d 68 61 cb 3d 20 da 07 bd 7c 86 7d 3d
       0.10835864 0.09930688 -0.033167005 0.061895832
000380 a0 92 b7 bd 94 a2 93 bd d0 6a e0 bc 74 4a 66 bd
       -0.089635134 -0.07208744 -0.027394682 -0.056223348
000390 4e 60 b1 bd a2 ca c0 3d b8 8e eb 3c b0 f2 f5 bd
       -0.08660947 0.09413649 0.028754577 -0.120091796
0003a0 b2 a6 ab 3d 30 8e bf bd 8e c1 ab bd fc 5d 31 bd
       0.08381404 -0.09353292 -0.08386527 -0.04330252
0003b0 f4 37 53 3d b0 77 c5 3c 0a 27 d7 bd ea 31 cf 3d
       0.051567033 0.024104923 -0.10505493 0.10116942
0003c0 4c 07 b2 bd 00 ba 94 bd a8 77 cf 3d 8a 8c 8f 3d
       -0.08692798 -0.07262039 0.101302445 0.070092276
0003d0 58 86 e7 3c 44 78 bd bd 3a de 87 bd 18 ec d3 3d
       0.028262302 -0.092514545 -0.06634183 0.10347766
0003e0 c0 32 d3 bb 12 19 be 3d 58 99 c7 bd 34 28 e0 bd
       -0.006445259 0.092821255 -0.09746045 -0.10945168
0003f0 e8 29 f3 bd 28 01 19 bd f2 e7 e2 bd 80 c1 1d bc
       -0.11873227 -0.03735462 -0.11079396 -0.0096286535

bias f4 [32]
000000 95 3d dc bc 41 76 ea 3a 8d 16 cd 3d 0a 1e 92 bd
       -0.026884833 0.0017888026 0.10014067 -0.07134636
000010 da 4b da 3d dd 35 8b 3c 1d f9 25 bd 7a b7 90 3d
       0.10658999 0.016993457 -0.040520776 0.070662454
000020 85 60 c7 bd 63 d2 b4 bc 2c b5 00 3d 7f da 40 3d
       -0.097352065 -0.022072976 0.03142278 0.047083374
000030 57 37 72 3d 63 de 31 3e 2e ce a3 3d ed ad 9d 3d
       0.059134807 0.1736999 0.0799831 0.07699189
000040 c0 87 c8 bd 80 f6 ba bc b2 0c 40 bd 56 ea ad 3d
       -0.09791517 -0.022822618 -0.046887107 0.08491962
000050 be 2c 4a 3d d5 88 a8 3b f4 fa 20 bd 22 15 96 3d
       0.049359076 0.005143265 -0.039301828 0.073282495
000060 e7 1b a3 3d 87 91 40 bb 8f e2 93 bd 14 c6 10 bd
       0.07964306 -0.0029383616 -0.07220947 -0.035345152
000070 28 4e 9e bd 72 c0 60 bd 33 c5 0c 3d 5a 25 7a bd
       -0.07729751 -0.05487103 0.03436775 -0.061070777

weight f4 [2, 32]
000000 68 2c 38 3e f7 fb 72 3d a7 7d 94 bd 70 1d 49 bc
       0.1798569 0.059322324 -0.07250529 -0.012275085
000010 f8 c5 8b bd e8 90 a2 3d 8a b4 30 3e 0b 51 9e bb
       -0.06824869 0.07937795 0.1725637 -0.0048314384
000020 85 e9 0f be a5 a7 3b bd 70 0e ee bd 87 90 07 be
       -0.14053924 -0.045814175 -0.116238475 -0.13238727
000030 57 b9 72 3e 22 31 a8 3d 00 e7 85 3b d2 12 55 bc
       0.23703514 0.08212496 0.0040863752 -0.013004975
000040 86 b6 b7 bd b0 bc 8d 3d 61 4b dd 3c 84 ca 20 be
       -0.089703605 0.06920755 0.027013483 -0.15702254
000050 ac 9c 05 bd 1d 81 aa 3d 1e af af 3d 89 20 82 3e
       -0.032620117 0.08325408 0.08578323 0.25415447
000060 d8 34 79 3d 4a 3c 00 be 40 96 11 3e 73 e3 79 3c
       0.06084141 -0.12522998 0.14217472 0.015251982
000070 00 6c 32 be 6e 25 00 3d 15 25 fc 3d 37 86 04 3e
       -0.17424011 0.031285696 0.1231176 0.12941824
000080 db 81 b8 bd 1d 44 2a be 5c 8b cb bd e0 eb ad bb
       -0.09009143 -0.16627546 -0.0993869 -0.0053076595
000090 23 32 dc 3c 1d ca 2f be 27 3e 0c be 75 44 e9 3d
       0.026879376 -0.17166944 -0.13695584 0.1139001
0000a0 cc 1f a1 3d 6f 4d 24 3e 3e 44 ac 3d 1d 01 0a be
       0.07867393 0.16045164 0.08411454 -0.13476987
0000b0 95 aa 25 be 59 79 0d bd 64 98 61 bd d6 63 4c be
       -0.16178353 -0.034539554 -0.05507697 -0.1995996
0000c0 66 3e c6 3d 5e 2e 55 bd d5 29 0d 3d 3d 35 e0 3d
       0.0967987 -0.052046172 0.034463722 0.109476544
0000d0 ea 6b 40 be 55 11 46 be e1 5e 11 3e 35 98 b9 bd
       -0.18791166 -0.19342549 0.1419635 -0.09062234
0000e0 9f 91 94 bd 20 82 a5 bd 15 0f 54 be 7a 09 89 3d
       -0.072543375 -0.0808146 -0.20708878 0.06691261
0000f0 01 13 a0 bd 86 37 59 be 02 a2 07 be 62 89 74 be
       -0.07816125 -0.21212587 -0.13245395 -0.23880532

bias f4 [2]
000000 94 a3 17 3c 53 42 0c bd
       0.009255309 -0.03424294
