nn_model_reliance1.pth (torch, 60255 bytes, 20 tensors)

0.weight f4 [128, 14]
000000 18 e4 81 be 7a 81 7a 3d 69 d0 49 3e d9 23 7a 3e
       -0.25369334 0.061158635 0.19708408 0.24427737
000010 d0 95 62 be 97 be 44 bd 75 d1 e2 bd e0 9c 7c be
       -0.22127461 -0.048033323 -0.11075107 -0.24669218
000020 0c 76 eb 3c b5 e1 05 be 7c b3 6e 3d 62 7b 3e bd
       0.028742813 -0.13074382 0.05827664 -0.046504386
000030 1e 18 3e 3e 14 a8 7a 3e 7e 95 82 be 0a 35 3a be
       0.18563887 0.24478179 -0.25504678 -0.18184295
000040 2b a4 c7 bc 6e 87 78 3e cd b1 af bd a7 bd de 3d
       -0.024370274 0.24270412 -0.08578835 0.10876017
000050 e4 d2 72 3d f6 e0 ca ba 7c 04 b5 3c 34 40 26 bd
       0.059283152 -0.001547842 0.022096865 -0.040588573
000060 a3 f5 96 3c 6d f0 27 3e a7 99 65 be 34 bb 01 3e
       0.018427676 0.16400309 -0.22421895 0.12669069
000070 c2 e0 42 bd b8 14 8b 3e 6c 6f 29 3e ce 3f 8b 3e
       -0.047577627 0.27164245 0.1654641 0.27197117
000080 96 09 41 3e d0 3d 49 be ca e9 4c 3e 4d 05 3e be
       0.18851313 -0.19652486 0.20011058 -0.1855671
000090 7e d3 37 3e fb bf 13 3e 63 2d 11 3e 6b 2d f3 bc
       0.17951772 0.14428703 0.1417747 -0.029684743
0000a0 d4 c6 8a 3d fa e1 02 bd 8d 66 7b be 72 6d 9a 3d
       0.06776205 -0.03195379 -0.24550839 0.07540406
0000b0 9e 4b 10 3e 35 4c 6d 3c 0c 3f 8f bd 3f ec 83 3d
       0.14091346 0.014483501 -0.06994447 0.06441545
0000c0 64 4c 08 be 25 12 da 3d 1d 1e 83 3e 9f c7 86 bd
       -0.1331039 0.10647992 0.25608912 -0.065810435
0000d0 13 3f 92 3e f0 e3 b7 bd a9 ff 37 3e 63 1e 0b 3e
       0.28563747 -0.089790225 0.1796862 0.1358581
0000e0 5d 8a 75 3e 9d fa 32 bd e8 57 67 3b 58 a1 41 3e
       0.23978563 -0.043696035 0.00353002 0.18909204
0000f0 61 ca 5d 3d ae a1 00 be 4e 81 e8 3d 1d 41 e2 3c
       0.05414808 -0.12561676 0.11352788 0.027618939
000100 23 1b fa 3d c1 43 33 3e 38 fd eb 3d 40 2b f7 bd
       0.12212207 0.17506315 0.11522907 -0.12068796
000110 03 ab 86 be 78 d3 31 3d 90 bb 9e 3d 00 07 52 bc
       -0.26302347 0.043414563 0.077506185 -0.012819052
000120 dc 4c 93 3d e8 fb 45 3e 18 89 67 bd 25 8b 2d be
       0.07192394 0.19334376 -0.056527227 -0.1694761
000130 f0 74 41 3d d0 b5 db bd 40 98 2b bc 80 ef d7 bb
       0.04723066 -0.10728037 -0.010473311 -0.00658983
000140 11 ab 88 3e 2a 54 3d 3e 8e c7 ca bd 97 27 13 be
       0.26693013 0.18489137 -0.09901343 -0.14370571
000150 0a 43 84 3e 13 fc 70 be 49 d2 01 3e 10 45 3b 3d
       0.25832397 -0.23533659 0.12677874 0.04572016
000160 a1 e9 ab bd 2b 8e 5f 3e 14 d7 92 bd 4a 8d 78 3e
       -0.083941706 0.21831577 -0.07169929 0.24272648
000170 fe b9 c3 3b 15 ff 77 3e bb fb eb ba 9c 8d 7f 3c
       0.0059730997 0.242184 -0.0018004099 0.015597727
000180 92 a0 2d 3e 3b fe 57 be 74 b1 3c be 2e 3d 71 3e
       0.16955784 -0.21093075 -0.18427068 0.23558494
000190 54 15 47 be 5d be cd bd 0d ca 80 3e b6 33 1a 3e
       -0.1944173 -0.100460745 0.25154153 0.15058789
0001a0 46 5f fb bd 7c 3f ff 3d ce f7 16 be 20 0f 43 be
       -0.12274031 0.124632806 -0.14742967 -0.19048738
0001b0 fe ff 15 be 4a e8 a6 3d f7 17 30 3b 42 2f 09 3e
       -0.14648435 0.081497744 0.0026869753 0.13396934
0001c0 0b cd 74 bc 71 14 64 be 79 5c 02 3e a8 97 85 bd
       -0.014941464 -0.22273423 0.12730588 -0.06523067
0001d0 24 89 f2 3d 0e 2e 91 3d 7a d1 06 bd 08 ca 90 3e
       0.11842564 0.07088862 -0.032914616 0.28279138
0001e0 f4 d7 99 3b 49 41 16 3e 94 42 4e 3d 14 d5 ef 3d
       0.004694933 0.14673342 0.050356463 0.11710563
0001f0 2b 09 65 be f9 81 1b 3d 86 28 30 be 4d 4b 67 3c
       -0.22366779 0.03796575 -0.17202958 0.014117074
000200 de be 50 be 58 8d b5 bd bd 0d 2a 3e 28 14 66 be
       -0.2038531 -0.0886485 0.16606803 -0.22468626
000210 94 92 8c bd c9 5e a4 bd 0c 85 57 3e 76 08 30 be
       -0.06863895 -0.08025891 0.21046847 -0.17190728
000220 c0 54 0f be 21 75 43 3e 66 fb 12 3e bb 09 fc bd
       -0.13997173 0.1908765 0.14353713 -0.123065434
000230 de 35 a8 bd 80 3d 86 bc e5 e3 0e be ac 2c d0 3d
       -0.08213399 -0.016386747 -0.13954122 0.101647705
000240 a8 9d 8d 3d 6b 5b 75 be 58 cf 3f 3d 2a d3 e9 bd
       0.06914836 -0.23960654 0.046828598 -0.114172295
000250 66 cc a7 bd 70 62 56 be 20 2f 41 3e e6 51 1a be
       -0.08193283 -0.20935988 0.18865633 -0.15070304
000260 97 74 5d be 92 2e 4a be 8c c8 61 3e e6 b4 25 be
       -0.21626507 -0.19744328 0.22049159 -0.16182289
000270 00 b6 fd 3a c0 57 e1 bc 10 07 e5 3c 78 52 56 3e
       0.0019356608 -0.027507663 0.02795747 0.20929897
000280 e6 4e 0c be ea 78 83 be 1e 07 2a be ea b5 cb bd
       -0.13701972 -0.25678188 -0.16604277 -0.09946807
000290 40 df 60 be c0 7d c9 3c 40 48 e3 3b 44 e3 2c bd
       -0.21960163 0.024596095 0.006936103 -0.042208925
0002a0 e9 cf 6b 3e 0c 78 14 3e fe 56 6d 3e dc bc aa 3d
       0.2302853 0.14498919 0.23177716 0.08336803
0002b0 cd a5 1f 3e 9d c8 79 be fa ba b0 bd 1c 05 74 bc
       0.15590592 -0.24392934 -0.08629413 -0.014893796
0002c0 47 b8 bb 3d 8b 8b 69 3e d3 c5 08 be dd f5 21 be
       0.091660075 0.22807138 -0.13356714 -0.15816446
0002d0 47 0e 1f be 72 cc 75 3c 63 93 6b 3d 5d a0 66 3e
       -0.1553279 0.015002357 0.057513606 0.22522111
0002e0 24 4b 36 be ea 21 9e 3d f5 d4 cf 3d ae 91 14 3e
       -0.17802101 0.07721312 0.1014804 0.14508697
0002f0 9e 25 6d bd 5f 04 70 3e e8 11 54 be 7f 54 77 be
       -0.057897203 0.23439167 -0.20709956 -0.24153326
000300 c1 7b 48 be 55 39 69 3e 14 79 85 3d bf a3 28 3d
       -0.19578458 0.22775777 0.065172344 0.041171785
000310 25 38 36 be ab f9 33 bd 6d 67 1c be f6 72 e4 bd
       -0.17794855 -0.043939274 -0.15273829 -0.111547396
000320 38 17 c0 bc da 14 7b 3e f0 02 f1 bd 13 e6 3f 3d
       -0.023448572 0.24519673 -0.117681384 0.046850275
000330 7d 7a 8a 3d 45 32 69 3e 63 4a 22 be 1b 6e 23 be
       0.06761644 0.22773083 -0.15848689 -0.1595997
000340 c3 a3 38 bd 85 9b 24 bd bf 63 14 be b1 f0 24 bc
       -0.04507805 -0.040187377 -0.14491175 -0.010067151
000350 f1 c9 01 3e e1 69 3e bd 59 6f 52 3d 4e 5a 80 be
       0.12674691 -0.046487693 0.05137572 -0.25068897
000360 7d 9d 87 be be d9 c0 3c 08 00 7e 3e 92 10 65 3e
       -0.26487342 0.023541328 0.248047 0.22369602
000370 95 31 45 be 2d 30 ac bd 0b fb 8b bd 97 d9 80 be
       -0.19257195 -0.08407626 -0.06834992 -0.25166008
000380 f2 ca 87 bc 7b 56 19 3e 40 c9 98 3d 8c 96 a2 bd
       -0.016576264 0.14974396 0.074602604 -0.07938871
000390 13 49 08 3e fa 68 81 3e cf e7 65 bd 2d a5 ee 3c
       0.13309126 0.25275403 -0.056129273 0.029131496
0003a0 1d fc 65 bd 42 d3 f7 bc ee 9f 95 3e 82 8d 68 3e
       -0.056148637 -0.030252103 0.2922358 0.22710231
0003b0 88 d9 4e be 5a c5 fb 3d 32 8c 29 be 1d 4a d1 bd
       -0.20200169 0.12293501 -0.16557387 -0.10219214
0003c0 ef 54 94 bd 1f fb 12 be f0 b5 66 be c5 80 30 3c
       -0.07242762 -0.14353608 -0.22530341 0.010772889
0003d0 8b 83 49 3d 08 0e 1d 3e 8d e0 93 3d d8 44 1f 3e
       0.049197715 0.15337384 0.07220564 0.15553606
0003e0 f0 09 ba bd f4 0b cd 3d a8 83 9e 3d b1 0d 65 3e
       -0.09083927 0.100120455 0.07739955 0.22368504
0003f0 b3 5f 47 3c 34 9b a6 3d a0 63 36 3c 53 c0 69 3e
       0.012168813 0.081350714 0.011132151 0.22827272

0.bias f4 [128]
000000 ad cf 8b 3e 10 90 22 be 3b ee e6 bd 10 a5 44 3e
       0.27306882 -0.15875268 -0.112759076 0.19203591
000010 47 b4 21 be 90 ed 75 be 01 d8 63 be b7 fe b1 3d
       -0.15791427 -0.24016404 -0.22250368 0.08691161
000020 c0 df 04 3e 15 b4 88 3d cc 4d a4 3d 70 56 1f be
       0.12975979 0.06674973 0.08022651 -0.15560317
000030 c8 10 3a be b3 d1 17 be df d5 06 3e 23 55 6f be
       -0.18170464 -0.14826088 0.13167523 -0.23372321
000040 de 20 0a be 61 9b bb 3d 0c fa cd bd 8f 50 07 bd
       -0.134891 0.091604955 -0.10057458 -0.03303581
000050 b5 84 05 be 25 dc c1 bd 06 05 cf 3d 7a 01 da bd
       -0.13038905 -0.09465817 0.1010838 -0.10644813
000060 a9 13 a2 bd 1a 7f 28 3e 4c a7 8c 3e 94 f4 10 be
       -0.07913906 0.16454735 0.27471387 -0.14155799
000070 a8 d3 a0 bd b1 39 0f 3e 26 85 0c 3e e4 5c b2 bd
       -0.0785287 0.13986851 0.13722667 -0.08709124
000080 49 e9 44 3e 2a ef 4b 3d 8f e4 50 3e 8b cb 88 3e
       0.19229616 0.04978863 0.20399688 0.2671779
000090 62 b7 6b 3e c7 b1 49 be 1e 88 dd 3c d2 86 19 be
       0.23019174 -0.19696723 0.027042445 -0.14992836
0000a0 f9 46 35 3e f5 cf 94 3d a1 74 80 3e 65 e4 a5 bb
       0.17702855 0.07266227 0.2508898 -0.005062627
0000b0 9e da 4c be 4e e8 1c bd 23 92 91 3c 74 ad 17 3c
       -0.20005271 -0.03830748 0.017769879 0.009257663
0000c0 dd 3b 10 3d 51 f8 3a 3e b8 ba 8a 3c 5d 68 14 3e
       0.03521334 0.18258788 0.016934738 0.14492936
0000d0 b5 48 d6 3c cf 18 04 bc fc db 5a 3e 75 f6 5d 3e
       0.026157716 -0.008062555 0.2137298 0.21676047
0000e0 be 09 23 be df c9 9d be c6 d2 4c 3e d9 da 1d be
       -0.15921685 -0.30818078 0.20002279 -0.15415515
0000f0 54 ed 6b 3e de 6b 56 3e c7 10 89 3e df 1c da 3d
       0.23039752 0.20939586 0.26770613 0.10650038
000100 1d 04 c5 bc b3 f1 93 3c 70 b9 b7 3d ea dc 5b be
       -0.024049813 0.018059587 0.08970916 -0.21470991
000110 45 4b 3e 3e 5f 3a 5e be cb ca d4 3d 21 59 79 be
       0.185834 -0.21701954 0.10390242 -0.24350406
000120 cb 55 3e bb 1f 54 63 3e b6 0a dc 3d e0 78 4b 3e
       -0.0029042836 0.22200058 0.107442304 0.19870329
000130 35 bf 4d be d0 d9 2a 3e 8c af ad bc 02 a2 7a be
       -0.20092471 0.16684651 -0.021201871 -0.24475864
000140 d9 01 63 3d 90 01 28 3e 4e 7e 98 3b b7 be a6 3d
       0.055421684 0.16406846 0.0046537286 0.08141845
000150 83 c8 24 3d 45 b4 65 be 8d 95 03 be 59 b3 60 be
       0.040230285 -0.22432049 -0.12850018 -0.21943416
000160 d0 9c 07 3e 93 88 a3 3c 12 4d 27 be 28 ff 24 be
       0.13243413 0.019962585 -0.16337994 -0.1611296
000170 45 06 3e bd 4a 65 25 be b5 7c 65 3e 7c 51 b0 3c
       -0.046392698 -0.1615192 0.22410853 0.02152323
000180 e7 d8 4a be 29 33 dc bd 96 bd 81 bd f6 fb 5e be
       -0.19809304 -0.107519455 -0.06334989 -0.21775803
000190 3c 4e 76 be aa 54 c7 3d 72 d8 a2 bd 4b 6a c1 bd
       -0.24053282 0.09732945 -0.0795144 -0.09444102
0001a0 4e 03 8e be 11 f2 42 be e4 2f df 3d b4 db ce bd
       -0.27736896 -0.19037654 0.10897806 -0.10100499
0001b0 af f8 a9 bd 74 6d 27 be 06 d9 cf bd 22 71 07 3e
       -0.08299386 -0.16350347 -0.10148816 0.1322675
0001c0 36 f6 b3 3d bc d8 36 be 40 2e 2a 3d 0a 1f ee bd
       0.087871954 -0.17856115 0.041548014 -0.11627014
0001d0 b7 31 72 3e 01 0b d5 3d 16 fc 2a be 36 b9 bf bd
       0.23651777 0.104024895 -0.16697726 -0.09361498
0001e0 f6 d8 74 be 67 f1 1d 3e c8 c2 9d bd 44 95 18 3e
       -0.23910889 0.15424119 -0.07703167 0.1490069
0001f0 fc 65 a0 bd 08 90 69 bd a8 3f 8d bc ec 3b d6 bd
       -0.07831952 -0.057022125 -0.017242268 -0.10460648

2.weight f4 [128]
000000 b5 12 75 3f 48 50 7e 3f e9 cc 7c 3f 64 19 78 3f
       0.9573167 0.9934125 0.9875017 0.96913743
000010 8c b4 79 3f 00 00 80 3f 06 32 77 3f cf 06 79 3f
       0.9754112 1.0 0.96560705 0.97276014
000020 d8 26 74 3f c3 4c 8a 3f 00 00 80 3f 00 00 80 3f
       0.9537177 1.0804676 1.0 1.0
000030 64 d0 78 3f 3f bf 7a 3f 63 35 74 3f 40 81 82 3f
       0.9719298 0.9794807 0.9539396 1.0195694
000040 e5 be 7c 3f 08 7e 7e 3f 6a 04 81 3f 13 73 7a 3f
       0.9872878 0.9941106 1.0079472 0.9783184
000050 45 d4 7a 3f a9 01 78 3f b2 db 7c 3f 00 00 80 3f
       0.9798015 0.96877533 0.9877273 1.0
000060 bb 33 7a 3f 9f 19 77 3f 41 12 74 3f 00 00 80 3f
       0.97735184 0.9652347 0.95340353 1.0
000070 4b 94 7e 3f 46 e4 7a 3f 82 19 79 3f 77 db 79 3f
       0.9944503 0.9800457 0.97304547 0.976005
000080 ca e2 81 3f da da 75 3f 43 bf 7d 3f 29 d4 76 3f
       1.0147336 0.96037066 0.9911997 0.9641748
000090 71 5c 7d 3f 00 00 80 3f 5c 11 7a 3f d8 99 80 3f
       0.9896918 1.0 0.9768274 1.0046949
0000a0 5f 88 75 3f 57 2c 78 3f 0a 84 7b 3f e0 30 7c 3f
       0.9591121 0.9694266 0.9824835 0.9851208
0000b0 00 00 80 3f d9 bf 7b 3f da c1 76 3f 37 c0 71 3f
       1.0 0.9833961 0.96389544 0.9443392
0000c0 21 c2 81 3f db 78 78 3f 73 0e 80 3f f5 1e 72 3f
       1.0137368 0.9705941 1.000441 0.94578487
0000d0 e5 2b 74 3f af 8d 76 3f 7f e6 78 3f f2 3a 76 3f
       0.9537948 0.9630994 0.9722671 0.96183693
0000e0 00 00 80 3f 2f 40 77 3f c8 53 8a 3f 38 06 71 3f
       1.0 0.9658231 1.0806818 0.94150114
0000f0 99 ba 80 3f e6 50 89 3f 7e dd 7a 3f 3b 36 87 3f
       1.0056945 1.0727813 0.9799422 1.0563425
000100 07 79 74 3f 3e 1e 80 3f 3b c6 7a 3f 3e c9 7b 3f
       0.95497173 1.0009229 0.97958726 0.98353946
000110 40 e7 79 3f 00 00 80 3f 9a 5b 74 3f 3f 3f 7d 3f
       0.97618484 1.0 0.9545227 0.9892463
000120 7e bc 7c 3f 2a 0d 77 3f 86 27 76 3f 53 38 7f 3f
       0.98725116 0.9650446 0.9615406 0.9969532
000130 75 0c 7e 3f e5 2f 7c 3f 88 8a 78 3f 5c d9 78 3f
       0.9923776 0.9851058 0.9708638 0.97206664
000140 7c 00 77 3f c7 02 7e 3f 61 2a 7f 3f 6c 3c 76 3f
       0.96485114 0.9922299 0.9967404 0.96185946
000150 06 da 76 3f 2c ba 7c 3f 73 a6 7a 3f 5c 6d 7e 3f
       0.9642643 0.98721576 0.9791023 0.9938562
000160 1b cc 81 3f a3 9b 8a 3f 00 00 80 3f 63 9b 75 3f
       1.0140413 1.0828747 1.0 0.95940226
000170 fb ba 76 3f 00 b1 78 3f fb bf 75 3f 22 e6 7c 3f
       0.9637906 0.9714508 0.95996064 0.98788655
000180 b6 e9 8b 3f 4d c4 73 3f 00 00 80 3f 70 41 7a 3f
       1.0930698 0.95221406 1.0 0.977561
000190 2a e0 77 3f 4b ea 7f 3f 00 00 80 3f 26 56 72 3f
       0.9682642 0.9996688 1.0 0.946627
0001a0 70 6c 79 3f 00 00 80 3f 1a a4 80 3f a6 0a 77 3f
       0.9743109 1.0 1.005008 0.96500623
0001b0 03 4c 79 3f a9 e2 72 3f 00 00 80 3f 66 8b 76 3f
       0.9738161 0.94877106 1.0 0.96306455
0001c0 0d b2 77 3f 00 00 80 3f 5c d1 77 3f d4 5a 78 3f
       0.9675606 1.0 0.9680383 0.9701359
0001d0 f5 10 7d 3f c1 0c 79 3f c3 71 84 3f 11 95 78 3f
       0.98854 0.97285086 1.0347217 0.9710246
0001e0 00 00 80 3f 68 9c 79 3f 88 60 7d 3f 74 db 74 3f
       1.0 0.9750428 0.9897542 0.9564736
0001f0 00 00 80 3f 0b 2b 7a 3f 1b b0 75 3f ea 19 80 3f
       1.0 0.9772193 0.9597184 1.0007908

2.bias f4 [128]
000000 02 e6 a8 3c 44 b8 5d bd 0a bd d0 bb 43 af 29 3d
       0.020617489 -0.054130808 -0.0063701915 0.04142691
000010 21 a6 99 3c d9 db c8 bd fc f9 63 bc f3 80 74 bd
       0.018755974 -0.098075576 -0.013914581 -0.059693288
000020 b3 aa 84 3d dd fd af bd dd 84 c4 3d 93 46 c8 3d
       0.06477871 -0.085933425 0.09595654 0.09779086
000030 95 87 5c bd d5 9e bb bc e9 e2 3c bd 9d 4e 4e bd
       -0.05384024 -0.022902885 -0.046114836 -0.05036794
000040 60 39 43 3d 6b c7 75 bd 42 45 4e 3d 20 f0 76 bc
       0.04766214 -0.060004633 0.05035902 -0.015071899
000050 2d 09 9d 3d 65 0d 06 3c 29 c4 36 bd 5f 7f c1 bd
       0.07667766 0.008181904 -0.044620667 -0.09448122
000060 96 78 f3 bc bb c6 25 bb 13 01 85 bd 07 69 bf 3d
       -0.029720586 -0.0025295455 -0.064943455 0.09346204
000070 23 07 81 3c 92 32 42 bd 96 3c 3d 3d af be 85 bd
       0.015750473 -0.04741151 0.046200357 -0.06530511
000080 89 dd 9b 3d 2f da 1b 3d 59 27 3b bd c4 c7 21 bd
       0.07610614 0.038049873 -0.04569182 -0.039497152
000090 bc 91 8b bd 82 e4 bf 3d bb 80 31 3d 0f 85 38 bd
       -0.06814906 0.09369756 0.043335658 -0.04504877
0000a0 db b2 d1 3c fa 5b ac bc 1d 37 90 bc d9 fa 82 bd
       0.02559798 -0.021039952 -0.017604405 -0.06395502
0000b0 7a 67 c6 bd ec a2 96 bd 3f e2 0d bd a1 08 19 bd
       -0.09687705 -0.07355294 -0.034639593 -0.037361745
0000c0 f0 5a 7d 3d 5f 36 cf bc 85 a9 57 3d 1d f4 67 3d
       0.061854303 -0.02529448 0.0526519 0.05662929
0000d0 35 f6 ae bc 9c 3d 84 bc 6c 10 7d bd fc b3 2c bd
       -0.021357635 -0.016142659 -0.06178324 -0.042163834
0000e0 f6 ad 40 3d fb 68 91 bc c8 3c ac bd a5 9c 12 bd
       0.047040902 -0.017750254 -0.084100306 -0.03579392
0000f0 66 8d 94 bd d6 e0 b4 bd 41 4e 99 3c 78 dd ac bd
       -0.07253532 -0.088319466 0.018714072 -0.08440679
000100 2c e9 32 bd 00 ae a9 3d 2e 87 bb bc 82 df e3 3c
       -0.0436794 0.08285141 -0.022891607 0.027816538
000110 c4 2e 6d 3d 82 2f a7 bd 6e 82 33 3d 27 f1 92 3c
       0.057905927 -0.08163358 0.04382556 0.017937256
000120 80 90 ca bc 4f 50 18 bd 7f 7a 6c bd cb d5 3d bd
       -0.024727106 -0.037185963 -0.05773401 -0.046346467
000130 92 78 1a 3d 5c 4a 8d bd ff 76 98 bd 9c 6d 89 bd
       0.03771264 -0.068989486 -0.07444572 -0.067103595
000140 26 5c 72 3d 38 c0 a6 3d 67 e0 7f 3d c7 f5 45 bd
       0.05916991 0.081421316 0.062469866 -0.048330095
000150 0e f3 ab bc 1d 34 3e 3d eb a2 8f bd d0 ec 3c 3d
       -0.020989921 0.046436418 -0.07013496 0.04612428
000160 d2 7c 89 3d 96 2b aa bd 2f bb b4 bd 18 52 ec bc
       0.06713261 -0.083090946 -0.08824765 -0.02884774
000170 bd cf 7e 3d ec e3 c7 3c f2 83 ef 3c a1 63 7f 3d
       0.062209833 0.024400674 0.029237721 0.062350873
000180 c7 22 b0 bd df 27 72 bc 2e 7d ba 3d ff f0 a5 3c
       -0.08600383 -0.014780014 0.091059074 0.020256517
000190 c6 13 99 3d 29 07 8c 3d 67 16 ae bd 36 6d 95 3c
       0.074744746 0.06837303 -0.08500367 0.018240552
0001a0 a2 7c f8 bc 21 a6 99 bd ec 70 83 3d 59 cf 73 3d
       -0.030332867 -0.0750239 0.064180225 0.059523914
0001b0 41 c8 d4 bc c4 d8 13 bc 27 08 91 3d 48 50 b0 bc
       -0.025974395 -0.009023849 0.07081633 -0.021522656
0001c0 bc b9 c4 bb cd d2 98 bd 8d 29 65 3d 8b de e8 bc
       -0.0060035866 -0.07462082 0.05594783 -0.02842643
0001d0 54 bb c3 3b 9e 4b 6e 3d 93 fa 8e 3d bf cd 51 bd
       0.005973259 0.058177583 0.06981387 -0.051221605
0001e0 8b 8c ce bd 59 f6 90 3d 3c 8d 91 bc 3c 5f d6 3c
       -0.100854 0.07078237 -0.017767541 0.026168458
0001f0 a4 e2 b3 3d 03 6a f3 3b 7a 1b 51 3d b7 bb 12 3d
       0.08783463 0.007428409 0.051051594 0.03582355

2.running_mean f4 [128]
000000 ea 05 b1 3e da ac 78 36 8e 03 66 3e 34 fa 03 3f
       0.34574825 3.7055493e-06 0.22462294 0.51553655
000010 3d 00 d4 3d 00 00 00 00 8c 1b 19 3e cb a3 48 3d
       0.10351608 0.0 0.14951915 0.04898433
000020 a1 cf ad 3e 4d 8c d6 3b 00 00 00 00 00 00 00 00
       0.3394747 0.006547487 0.0 0.0
000030 c0 26 a6 3d 2b 1c 83 3d f9 5f 1c 3d c3 cc b8 39
       0.0811286 0.06401857 0.038177464 0.00035247774
000040 aa f6 94 3e ed 03 23 3e a8 b9 95 3d c2 3d d3 3d
       0.2909444 0.15919466 0.07310802 0.10314514
000050 5b 55 e4 34 b4 2e 27 3e e6 dc bc 3d 00 00 00 00
       4.2530414e-07 0.1632641 0.092218205 0.0
000060 07 ae c4 3c 77 13 30 3f ad c7 23 3d 00 00 00 00
       0.024008764 0.687797 0.039985348 0.0
000070 9e 6e 0f 3d 36 c0 9f 3d 8b 16 43 3f 58 73 53 3d
       0.035017602 0.07800333 0.7620627 0.051623672
000080 90 b3 b5 3e 6e 97 b1 3e f1 22 54 3e 21 60 9a 3d
       0.35488558 0.34685844 0.20716454 0.075378664
000090 50 f8 d4 3d 00 00 00 00 35 25 93 3e a9 03 df 39
       0.10398924 0.0 0.28739324 0.00042536602
0000a0 79 d4 7d 3e 42 3e 93 3d bc 7a b3 3e ff c5 39 3d
       0.24788083 0.07189609 0.35054576 0.04535484
0000b0 00 00 00 00 da c1 d1 39 e4 68 1c 3e 97 24 73 3a
       0.0 0.00040008017 0.15274388 0.00092751667
0000c0 c4 97 1c 3b 66 17 1d 3e 6b b1 a1 3e 3b be c6 3d
       0.002389417 0.15340957 0.31580672 0.09704252
0000d0 7a 41 40 3c 83 ac 87 3e f3 f0 fd 3d f6 f3 8b 3e
       0.011734361 0.26498803 0.12399473 0.27334565
0000e0 00 00 00 00 bc 8b 89 3e c5 96 92 3b b7 a9 f3 3c
       0.0 0.2686442 0.0044735395 0.029744012
0000f0 b3 95 3d 3e ec 66 ab 3b dc 49 96 3e b3 c1 8d 3a
       0.18514137 0.005230775 0.29353225 0.0010815173
000100 01 1f 9b 3d 38 ab 26 3b 05 11 4c 3e 24 5b 9c 3c
       0.07574273 0.0025431644 0.19928367 0.019086428
000110 80 f7 aa 3e 00 00 00 00 61 ab 03 3d fa 64 e8 3d
       0.33391953 0.0 0.03214586 0.11347385
000120 19 27 92 3b 4f d7 dc 3d 9b 5c 58 3c de 79 2d 3f
       0.004460227 0.10783254 0.013205673 0.6776408
000130 c8 f7 65 3d 21 04 0e 3d 76 df 11 3a 91 95 a8 3d
       0.056144506 0.034671906 0.00055646093 0.082316525
000140 d0 e5 07 3e 7f 55 f4 3e 77 4b 14 3c 92 4c 2a 3e
       0.1327126 0.47721478 0.009051195 0.16630772
000150 51 9d 30 3e 98 0d 02 3d db d6 01 39 0c dd ab 33
       0.17247511 0.031751245 0.00012382439 8.003016e-08
000160 31 df 2b 3e 38 33 e5 3b 00 00 00 00 23 54 94 3b
       0.1678436 0.006994631 0.0 0.0045266314
000170 ce 53 31 3e 25 cf 51 3d f1 e9 47 3e 76 82 90 38
       0.17317125 0.05122294 0.19522835 6.890755e-05
000180 60 e3 9b 39 16 7d 8e 3c 00 00 00 00 1c 06 22 3e
       0.0002973331 0.01739363 0.0 0.15822643
000190 3d b4 53 3c ff 15 00 3f 00 00 00 00 d2 e8 4b 3a
       0.01292139 0.50033563 0.0 0.00077785284
0001a0 6a ac e6 3c 00 00 00 00 86 a2 c3 3e f5 c4 3d 3e
       0.028158385 0.0 0.38209933 0.18532164
0001b0 28 0a 3e 3d de d6 ae 3b 00 00 00 00 53 8e 16 3f
       0.046396405 0.0053356728 0.0 0.5881092
0001c0 5a 3a 81 3d 00 00 00 00 67 7d 9b 3b f5 4f 2a 3e
       0.06309958 0.0 0.0047451737 0.16632064
0001d0 82 e2 ac 3d 33 68 08 3f c5 3f a1 38 c0 b3 96 3d
       0.084416404 0.53283995 7.688956e-05 0.07358503
0001e0 00 00 00 00 9d 2a 0e 38 01 40 22 3d 1b 82 95 3e
       0.0 3.3895125e-05 0.03961182 0.29200825
0001f0 00 00 00 00 b3 91 8b 3c 8e 29 43 3b 28 e3 93 3b
       0.0 0.017037248 0.0029779407 0.004513163

2.running_var f4 [128]
000000 85 f5 4b 3c 9c 40 df 37 2a 75 a4 3c 36 9c 6f 3c
       0.012448673 2.6613758e-05 0.0200754 0.014624646
000010 b9 b4 30 3c 05 d0 de 37 d1 61 49 3c 91 6b 76 3b
       0.010785275 2.6561329e-05 0.012291388 0.0037600736
000020 c4 e9 b8 3b 0a cf 7a 3a 05 d0 de 37 05 d0 de 37
       0.0056431014 0.00095675944 2.6561329e-05 2.6561329e-05
000030 cd 58 2b 3c a8 14 fe 3b 23 f6 59 3b 5c 98 39 38
       0.0104581835 0.0077539273 0.0033258281 4.4249333e-05
000040 1b 29 7c 3c da 8c fe 3b dc b5 dc 3b d4 43 fb 3b
       0.01539066 0.0077682557 0.0067355465 0.007667998
000050 f5 fc de 37 e3 28 a7 3c 21 fc b3 3b 05 d0 de 37
       2.6582255e-05 0.020405238 0.0054927026 2.6561329e-05
000060 4d e2 fa 3a 4c b2 d2 3c 3e 4e 18 3b 05 d0 de 37
       0.0019140929 0.025719784 0.0023239995 2.6561329e-05
000070 4f 17 86 3b d3 b5 44 3a ec 5d d5 3c 89 7d 43 3b
       0.004092134 0.00075039006 0.026045762 0.0029829463
000080 d3 38 a8 3c a3 d5 76 3c 2e 17 24 3c be 6d f7 3b
       0.020534908 0.015065583 0.010015292 0.007550924
000090 33 bd 26 3c 05 d0 de 37 12 7c 51 3c c9 fe 45 38
       0.010176945 2.6561329e-05 0.012785928 4.7205747e-05
0000a0 16 13 33 3c c0 cf 9d 3b af ea c2 3c a3 1c 30 3b
       0.010929843 0.0048160255 0.023793546 0.0026872538
0000b0 05 d0 de 37 e4 72 41 38 45 1f 10 3c 25 1d bc 38
       2.6561329e-05 4.6121786e-05 0.008796518 8.969967e-05
0000c0 c2 e6 03 39 35 c2 61 3c 8a 33 51 3c dd e4 db 3b
       0.00012579098 0.013779213 0.0127686355 0.0067106322
0000d0 16 55 77 3a 8f 52 bb 3c e2 9a 04 3c e0 a8 44 3c
       0.0009434981 0.022866515 0.008093568 0.012003154
0000e0 05 d0 de 37 eb cb dc 3c 70 b0 d7 39 68 76 d7 3a
       2.6561329e-05 0.026952704 0.00041139452 0.0016438486
0000f0 f1 b0 8b 3c 8d c5 26 3a 64 25 cd 3b 12 fb d2 38
       0.017052146 0.0006361835 0.006260561 0.00010060346
000100 3b fe b8 3b 94 9b 59 39 53 ca b3 3b 2f 00 bb 3a
       0.005645541 0.0002075269 0.0054867654 0.0014267022
000110 87 30 b4 3c 05 d0 de 37 aa 98 f9 3a df 34 9b 3c
       0.021995796 2.6561329e-05 0.001904269 0.01894611
000120 4b 62 7b 39 5c 44 4a 3b a1 00 e8 39 fc f0 5a 3c
       0.00023973842 0.00308635 0.00044250957 0.013363119
000130 cd 82 9f 3b 10 03 78 3b a7 5b 85 38 fe 29 3f 3c
       0.0048678876 0.0037843622 6.359006e-05 0.011667727
000140 dc 6c 01 3c b3 66 17 3d 29 b9 00 3a d4 95 0e 3c
       0.007899489 0.036963176 0.00049104035 0.008702714
000150 bc 17 67 3c 0a de 1a 3b 1b 43 27 38 3f d6 de 37
       0.01410478 0.002363088 3.98784e-05 2.6564228e-05
000160 1e be 41 3b cb 39 78 3a 05 d0 de 37 d3 ce c3 39
       0.0029562782 0.0009469061 2.6561329e-05 0.00037347394
000170 0c 3a 1b 3c da 61 8a 3b 96 2b 7b 3c 33 9c e9 37
       0.009474289 0.0042230906 0.015330216 2.78485e-05
000180 00 b1 7d 38 ab ce b5 3a 05 d0 de 37 e0 d4 82 3c
       6.0484745e-05 0.0013870796 2.6561329e-05 0.015970647
000190 41 ba 5f 3a b0 81 d0 3c 05 d0 de 37 cb bf bb 38
       0.0008534529 0.025452465 2.6561329e-05 8.952579e-05
0001a0 94 41 ca 3a 05 d0 de 37 b0 52 e5 3c 12 70 5d 3c
       0.0015430921 2.6561329e-05 0.02799353 0.013515489
0001b0 66 a4 47 3b 55 88 eb 39 05 d0 de 37 6d bf 53 3c
       0.003046298 0.00044924268 2.6561329e-05 0.012924057
0001c0 b8 cc bf 3b 05 d0 de 37 52 4b a3 39 a8 0f 19 3c
       0.005853262 2.6561329e-05 0.000311459 0.009342112
0001d0 f9 08 8e 3b e1 cb 62 3c 9a ba 02 38 a4 eb 76 3b
       0.0043345657 0.013842554 3.11682e-05 0.0037677074
0001e0 05 d0 de 37 7a c7 e8 37 a0 2a 24 3b b3 c6 9a 3c
       2.6561329e-05 2.7749444e-05 0.002504982 0.018893575
0001f0 05 d0 de 37 da 07 9d 3a b4 c1 22 39 93 a2 b9 39
       2.6561329e-05 0.0011980489 0.00015521684 0.00035407077

4.weight f4 [64, 128]
000000 ee de 0f 3c 7c 6c 07 bd d5 3a 3b 3d 9f c4 80 3d
       0.008781178 -0.033062443 0.045710403 0.062875025
000010 dc aa 0f 3d d7 69 75 3d 24 cb 17 3c 19 35 7a 3d
       0.035075054 0.05991539 0.009264741 0.061085794
000020 ee 7d 1e bd 31 7b cc 3d 00 8d 26 be 2e 47 27 be
       -0.038694315 0.099844344 -0.16264725 -0.16335747
000030 0d b0 e2 3c 25 1c 60 3c 67 66 de 3b 8e 14 bc 3c
       0.027671838 0.013678585 0.0067871097 0.02295902
000040 25 1d bd 3b 22 5c 9b 3c 4e bf 20 3d f7 c0 2a bc
       0.0057712966 0.01896483 0.039244942 -0.010421983
000050 d4 69 4b bd 22 4a a4 3c dd eb 28 bc c2 ab 7d 3d
       -0.049661472 0.02005488 -0.01031014 0.06193138
000060 1e 3d e8 3b 62 fb 2e 3d 23 90 8e bb ab ff 22 be
       0.007087364 0.042720206 -0.0043506785 -0.15917842
000070 5b 37 73 bd 21 c0 5e bd c3 2f 35 bd 4f e3 f6 3c
       -0.059378963 -0.054382447 -0.044235002 0.030137686
000080 8d be a6 bd 6d f3 09 bc c5 93 28 3d 65 43 03 bd
       -0.081418134 -0.008419854 0.04115655 -0.032046694
000090 c3 b7 83 3d 5f 87 1d be 96 5e 41 bd 36 ac 1b bc
       0.06431534 -0.15383671 -0.047209345 -0.0095015075
0000a0 fc f1 94 ba d1 51 8a 3c 4c 3d ae 3b 39 f3 4a 3d
       -0.0011363621 0.016884716 0.0053173658 0.04954836
0000b0 a4 8c 0f 3e 50 11 f6 3c d5 ae 16 3c 1b 18 84 bc
       0.14018494 0.030037552 0.009196957 -0.016124776
0000c0 27 ef 0d 3c 84 79 9f bc 5f 89 1e 3c 46 92 23 bd
       0.008662975 -0.019467123 0.0096763065 -0.03993442
0000d0 26 8c 3f 3d 38 0d 8d 3d ff b4 68 3b 0d 4f 65 3d
       0.046764515 0.06887287 0.0035508273 0.05598359
0000e0 e0 d7 b2 bd 81 96 01 bd be df d0 3d 12 9f 23 3d
       -0.08732581 -0.031637672 0.101989254 0.039946623
0000f0 3b 3c 1f 3d f1 8f fb 3d fd 4f 1f 3d 08 dc 84 3d
       0.0388758 0.12283314 0.038894642 0.0648728
000100 d1 76 f4 3c 75 d0 8b bd 1a 6c 0f bd 75 38 29 3d
       0.029841812 -0.068268694 -0.035015203 0.041313607
000110 7e e8 50 bd 28 47 1e 3e 56 1a ab bb 8f bc 55 bd
       -0.05100297 0.15456831 -0.0052216453 -0.052181777
000120 fb ad 0e bd be de 21 3d af 41 8f 3d 03 f2 b4 3d
       -0.03483389 0.039519064 0.0699495 0.088352226
000130 22 66 14 bd cb 05 7f 3d 8a 99 3b 3d 26 da c0 3c
       -0.036230214 0.062261384 0.045800723 0.023541521
000140 6c 3b 85 bd 33 d5 54 bc a9 33 34 bc 88 37 a5 3c
       -0.065054744 -0.012990284 -0.010998645 0.02016808
000150 8d 8b 80 3d ae fe b7 bd bc 70 89 3d 8f 5b 93 bb
       0.06276617 -0.08984123 0.067109555 -0.0044969986
000160 e6 de e6 3c ef 40 5e 3d 16 7f e5 3d 8b 9b 30 3d
       0.028182458 0.054261144 0.1120588 0.043117087
000170 f6 9e 88 bd 6a f5 3f 3d cb 74 48 3c 75 1b 80 bc
       -0.066709444 0.046864904 0.012234877 -0.015638093
000180 8a 75 1c 3e 33 aa 2e 3d 74 14 24 be 4c 29 95 3c
       0.15279213 0.042642783 -0.16023427 0.018208168
000190 ed e8 74 bd f5 3e 61 bd b5 b2 2d 3e 0a dd fc bc
       -0.059792448 -0.05499168 0.16962703 -0.030867118
0001a0 49 9f 70 3c d5 f1 92 3d f1 33 ad 3b 2e a6 f6 bc
       0.014686414 0.07175032 0.005285733 -0.030108538
0001b0 48 9b 29 3d 38 78 e9 bb 29 f4 06 be d3 84 43 bd
       0.041407853 -0.007124927 -0.13179077 -0.047734093
0001c0 21 2a 6d 3d ba 0b 93 3d 87 50 4d bd c1 b8 99 bd
       0.057901505 0.07179971 -0.050125625 -0.07505942
0001d0 f5 8f 96 bc 3f 16 0e bd c0 e5 ee bd 01 b0 86 3d
       -0.018379191 -0.034689184 -0.11664915 0.06576539
0001e0 dd 37 22 3d 36 f6 b4 bd 66 4f 3a 3d 41 97 63 bd
       0.039604057 -0.088360235 0.045485877 -0.05556417
0001f0 c4 5d 42 be 37 7e 24 bd 94 da df 3c d0 b9 21 3c
       -0.18981081 -0.04015943 0.027325906 0.009870961
000200 a2 ae 0e 3d c8 3d e9 3c 59 e5 57 bd 2f b3 5f bd
       0.03483451 0.028471842 -0.052708957 -0.054614242
000210 ba e8 9d bd 94 b3 29 3d 99 cf 01 bd 0e 43 47 bd
       -0.07710405 0.041431025 -0.03169212 -0.048647933
000220 b1 e6 d4 3c ad a7 8f bd f8 65 20 3d 75 5d a6 bd
       0.025988908 -0.070144035 0.039159745 -0.08123294
000230 35 f3 1d bc 11 94 9a 3d c8 24 91 3d d1 cb 0a bd
       -0.009640505 0.07547773 0.070870936 -0.03388578
000240 54 35 25 bd 36 54 44 bd 48 9a ab 3d 87 cf 2f 3d
       -0.04033406 -0.047931872 0.08379036 0.042922523
000250 a7 85 45 bc fc 78 ba 3c 36 06 8d bb f3 ae 54 3d
       -0.012055791 0.022762768 -0.004303719 0.051924657
000260 cc 44 fa bc ba 3d 66 3d 2e e2 8c bd 0a fb be bd
       -0.030550383 0.05621121 -0.06879078 -0.09325226
000270 5a f5 d0 3d db ec ac 3c 73 31 dc bb 5f d9 ba bb
       0.10203047 0.021109035 -0.006719762 -0.005702182
000280 b7 38 2c bd 60 28 bc 3a f2 24 83 3d 9f a7 8a 3c
       -0.042046275 0.0014355294 0.06403531 0.016925631
000290 cf 29 6c bd e6 75 9c bd 67 0a 55 bd 20 67 c8 bc
       -0.05765706 -0.07639675 -0.052011874 -0.024463236
0002a0 cb a3 8b 3d e4 f5 88 3c 84 a3 f8 3c 2b 56 f1 bc
       0.068183504 0.016718812 0.030351408 -0.029460033
0002b0 97 b8 a3 3d 49 00 41 bc 4c 47 67 3d 01 52 15 3c
       0.07994192 -0.011779853 0.05646448 0.00911379
0002c0 49 2b 01 3d 70 b1 59 bd b0 f7 e9 3b 79 d7 93 bd
       0.03153542 -0.053147733 0.0071401224 -0.072188325
0002d0 64 1a ae bc b3 46 71 bd fc 18 bf bc b1 ba 07 3d
       -0.021252818 -0.058905315 -0.023327343 0.033137027
0002e0 16 9c 8c bd c6 de 21 bd 83 4a 73 3d cf 13 0f bd
       -0.068657085 -0.039519094 0.05939723 -0.034931
0002f0 88 a9 b3 3d 68 c3 5f 3d c5 30 7a 3d 6e c4 5b 3d
       0.0877257 0.054629713 0.061081666 0.053654127
000300 2b 05 51 3d 16 b6 b5 bc 26 59 9b 3d 04 7a 83 3d
       0.05103032 -0.022181552 0.07585363 0.06419757
000310 2c 6e 26 bd c2 74 25 bd 9e dd 3e bc ea 86 9f bd
       -0.04063241 -0.040394552 -0.011649517 -0.07789405
000320 ee bd 2b bd d9 97 a4 3c 0d 88 b4 3d b7 f4 60 bd
       -0.041929178 0.020091938 0.08815012 -0.05492088
000330 75 8a 77 3d f6 5b 94 bd b7 cd 27 3d a7 a1 a6 bc
       0.060434777 -0.07244103 0.04096767 -0.020340754
000340 2a ed b8 3d cc 3d 19 3b 67 8c 3b bd 80 bf a6 bd
       0.090296105 0.002338278 -0.045788195 -0.081419945
000350 dd db a8 bd bd 80 a1 3d fe ba 8e bd 51 6e 5c bd
       -0.082450606 0.07885883 -0.0696926 -0.053816143
000360 d8 ac 9b 3c 48 ae c6 bd fa c7 5a bb 1b 17 8c bd
       0.019003317 -0.0970121 -0.0033383355 -0.068403445
000370 f2 2e 81 3d 4a 34 50 3d b7 bf 84 bc df 9f 48 bd
       0.06307782 0.050831117 -0.016204698 -0.04898059
000380 f6 72 2a 3d 87 d6 56 3d 69 7b b4 bc be f9 fc bc
       0.04161354 0.052450683 -0.022031503 -0.030880805
000390 21 30 e9 bb 11 00 03 3c a3 18 50 bd 6c 3a 2b bd
       -0.007116333 0.007995621 -0.050804745 -0.041803762
0003a0 12 04 86 bc 8b 6f 45 bd ca 73 a8 bd 5e 6e a3 3a
       -0.016359363 -0.04820208 -0.0822521 0.0012468805
0003b0 bf cd 96 3b 83 0a 41 bd c9 cc cf bd f7 90 e3 b8
       0.0046021636 -0.047129165 -0.101464815 -0.00010851205
0003c0 62 00 6d 3c a7 17 09 3c cc de a7 3d a3 3b 62 3d
       0.014465423 0.008367456 0.08196792 0.055232655
0003d0 50 89 10 3d a9 eb 65 3d f7 bd 9d bd ac b6 1d 3c
       0.0352872 0.056132946 -0.077022485 0.009626072
0003e0 16 75 a9 3d c4 79 0a bd 6e 08 eb 3c 6d 5c 2a bd
       0.082742855 -0.03380753 0.028690543 -0.04159205
0003f0 52 3a 71 3d 9f 0e 2a bd b3 39 8b bd 97 6d 40 3d
       0.05889351 -0.04151785 -0.06798115 0.046979513

4.bias f4 [64]
000000 c3 28 f8 bd ad 79 86 3d a1 53 90 3d fd eb ef bc
       -0.1211715 0.065661766 0.07047201 -0.029287333
000010 bf ce cc bc 70 49 3a 3c c5 b2 cb bd f4 7c b1 3c
       -0.025000928 0.011370048 -0.09946207 0.021666028
000020 58 4c d4 bd 17 b6 57 3b fc 86 7b 3d f5 ed 89 3d
       -0.10366124 0.003291493 0.061408028 0.0673484
000030 90 5c 2e bc c1 05 52 bd aa 1d b1 bc d4 8b 4c 3c
       -0.010642186 -0.05127502 -0.02162059 0.0124845095
000040 90 06 07 bd bd 25 76 bd 28 7b d9 bc 2a 26 a7 bd
       -0.032965243 -0.060094584 -0.026547983 -0.08161576
000050 9c 7f ea 3c 4e c0 b8 3c 91 fd f0 bc 18 c7 30 bd
       0.028625302 0.022552636 -0.029417785 -0.04315862
000060 d5 f4 a0 bc 71 21 a0 bd 67 46 a1 bd ec d6 8d 3c
       -0.019647995 -0.078188784 -0.07874756 0.017314397
000070 a3 96 61 3d ff 56 0b 3d 03 d7 bc bc f4 a1 a5 bd
       0.0550753 0.034018513 -0.023051744 -0.08087531
000080 88 9c 6e 3d 7d 1a 5c 3d 75 0a 47 3d 42 fe 2b 3c
       0.05825475 0.0537362 0.048593957 0.0104976315
000090 62 b2 d2 3d a5 02 d4 3d 1d 03 4e bd 56 9a b4 bd
       0.1028793 0.10352067 -0.050295938 -0.088185
0000a0 14 34 a9 ba 8b 62 89 bd 7e 99 89 3d 8e 3a e6 3c
       -0.0012909197 -0.06708249 0.067187294 0.028104093
0000b0 54 96 3b 3d 02 d0 f8 bc 13 3a 9a 3b 40 07 a9 3d
       0.04579766 -0.030372623 0.00470663 0.08253336
0000c0 10 da fc bd c8 63 04 be 59 ea 33 bd 14 e3 07 bc
       -0.123462796 -0.12928689 -0.043924663 -0.008293886
0000d0 30 9c 88 bd a0 fd 68 3c a5 44 2a ba c5 ee a2 bc
       -0.066704154 0.014220625 -0.0006495214 -0.019889245
0000e0 ea 3f 97 bd bd 2b d3 3d ce 22 8d bb b6 04 df 39
       -0.073852375 0.10311077 -0.0043071276 0.00042537384
0000f0 56 c7 fc 3d cc a9 95 3c 54 61 b2 bc ca b2 43 3c
       0.12342708 0.018269442 -0.021774925 0.011944482

6.weight f4 [64]
000000 bb 32 88 3f 86 04 72 3f f9 41 80 3f 91 73 80 3f
       1.0640482 0.9453815 1.0020133 1.0035268
000010 86 e0 87 3f 0b 2f 83 3f fb ed 89 3f 66 00 7a 3f
       1.0615394 1.0248731 1.0775751 0.9765686
000020 51 5d 7a 3f a3 ee 75 3f f2 55 72 3f 7d 32 79 3f
       0.9779864 0.96067256 0.9466239 0.97342664
000030 8f 1a 82 3f ab b8 77 3f a0 b5 89 3f 50 3f 75 3f
       1.0164355 0.96766156 1.0758553 0.9579973
000040 4f 8e 74 3f 3f 49 78 3f 6a b7 80 3f db 69 84 3f
       0.95529646 0.96986765 1.0055974 1.0344805
000050 61 d2 76 3f 8e ee 77 3f 77 89 77 3f 91 19 77 3f
       0.9641476 0.9684838 0.9669413 0.96523386
000060 41 d6 78 3f da 2a 78 3f 57 97 80 3f 6f 4b 80 3f
       0.97201926 0.96940386 1.0046185 1.002302
000070 57 8d 76 3f 86 66 77 3f dd ed 72 3f 42 d9 87 3f
       0.9630942 0.96640813 0.948942 1.0613177
000080 5c 3a 73 3f 25 fc 75 3f 4f 0d 7d 3f 6a 17 74 3f
       0.95010924 0.9608787 0.9884843 0.9534823
000090 7b 53 84 3f 4d 8f 79 3f a6 cf 71 3f 96 37 7b 3f
       1.0337976 0.97484285 0.9445747 0.9813169
0000a0 9f a5 84 3f f1 cb 81 3f b9 f2 7a 3f bd 32 73 3f
       1.0363044 1.0140363 0.98026615 0.94999295
0000b0 b9 59 78 3f d9 16 7f 3f 8d c7 73 3f 75 e0 75 3f
       0.97011906 0.9964424 0.95226365 0.9604562
0000c0 01 18 79 3f f0 ca 82 3f f4 2e 83 3f eb 52 71 3f
       0.9730225 1.0218182 1.0248704 0.9426715
0000d0 fe d5 79 3f 18 ff 74 3f 47 bb 7f 3f 23 67 88 3f
       0.9759215 0.9570174 0.9989514 1.0656475
0000e0 9e 50 79 3f 74 28 7d 3f 8b 82 73 3f 01 44 77 3f
       0.9738864 0.9888985 0.9512107 0.9658814
0000f0 9a d5 77 3f 99 8a 86 3f f7 82 80 3f 3f 8f 70 3f
       0.96810305 1.0511047 1.0039967 0.93968576

6.bias f4 [64]
000000 d1 d1 b5 bd 1e cb 85 3d d7 56 c8 3c 47 c4 b7 bd
       -0.0887791 0.06532882 0.024455471 -0.08972984
000010 5b 57 c2 bd 2e eb c6 bd 74 6d b5 bd c8 17 b6 bc
       -0.09489318 -0.09712826 -0.08858767 -0.022228137
000020 47 7a 87 bd bc 99 24 bd 3a ba 83 3d 83 11 0c 3d
       -0.066151194 -0.040185675 0.06432004 0.034196388
000030 7f 08 2b 3d ae c0 a0 3c ab 54 c6 bd 98 6d 11 bd
       0.04175615 0.019623127 -0.09684118 -0.035504907
000040 19 ed 40 bc 4c f0 17 b8 d2 64 22 bd cb 97 b7 bd
       -0.0117752785 -3.6225e-05 -0.03964693 -0.08964499
000050 85 a6 41 bd 2e 39 8f bc 72 1f 8d 3d 49 75 28 bc
       -0.047277946 -0.01748332 0.06890763 -0.010281869
000060 70 eb 5e bd 2d f9 30 bd 50 49 95 bd 49 a9 4a bd
       -0.05442375 -0.043206383 -0.07289374 -0.04947785
000070 d0 cb 91 bd ae e0 5f bd 62 a8 64 bd 01 17 ce bd
       -0.07118952 -0.05465763 -0.055824645 -0.100629814
000080 f5 b8 83 3d f2 01 13 bd 2e 17 0d 3d 1d f9 c7 bc
       0.06431762 -0.035890527 0.034445934 -0.024410779
000090 53 8b a6 3d fc 81 28 3d 45 38 ae bd d9 5d a7 bd
       0.08132043 0.041139588 -0.08506826 -0.08172197
0000a0 3b 8a ba bd ce a6 91 bd 09 f7 88 bd 33 92 43 bd
       -0.091083966 -0.071118936 -0.06687743 -0.04774685
0000b0 73 36 8d bd cf c4 6f bd a1 f1 30 3d 64 37 f7 bc
       -0.06895151 -0.0585373 0.043199185 -0.03017778
0000c0 f9 98 b2 bd 92 e5 b6 bd ed 68 92 3d ca 2d 24 bc
       -0.087205835 -0.08930506 0.07148919 -0.010020683
0000d0 f9 0d 88 bd 75 a3 36 3d 04 73 ea bc d0 ec c9 bd
       -0.0664329 0.04458948 -0.028619297 -0.098596215
0000e0 b5 8b 7e bd 8d a6 8d 3c 79 93 af bd f6 6a b2 3c
       -0.062144954 0.017291332 -0.0857305 0.021779519
0000f0 b0 ae 36 3d 3c e0 8e bd fa b9 c6 bd 7f 07 3a bd
       0.04460019 -0.06976363 -0.09703441 -0.045417305

6.running_mean f4 [64]
000000 82 c2 d1 3d 03 67 99 3e 08 2a d5 3e a3 b5 8d 3e
       0.102421775 0.29961404 0.4163363 0.2767764
000010 7a db dc 3d ab fc fa 3d 8f 07 ba 3d 5c 0e 05 3f
       0.10784049 0.12255224 0.09083473 0.51975036
000020 ae 62 0e 3e 6f f2 b9 3e 66 ce 91 3e f2 03 93 3e
       0.13904831 0.36317775 0.28477782 0.28713948
000030 e3 39 8e 3e 8b 3a be 3e da 29 e3 3d 67 98 ba 3e
       0.2777854 0.3715404 0.11091967 0.364444
000040 01 5d bb 3e df 5d e5 3e 66 62 e8 3d f6 74 f5 3d
       0.36594394 0.4479818 0.11346893 0.11985199
000050 27 0d 97 3e bb 2b a3 3e ae 4b e8 3e 04 c2 c0 3e
       0.29502222 0.318693 0.4537024 0.37648022
000060 6e c5 d5 3e 4e 65 c5 3e 01 6a 3b 3e 4a bf 99 3e
       0.4175219 0.38553852 0.18302156 0.30028754
000070 d1 b8 55 3e fe 85 98 3e 86 42 c7 3e fd 77 d1 3d
       0.20871283 0.29789728 0.3891794 0.10227964
000080 2a f9 9d 3e 68 06 d4 3e 17 a5 05 3f 6c b4 a0 3e
       0.3085416 0.41411138 0.5220503 0.3138765
000090 3f 97 9a 3e fb 19 cd 3e 17 f8 8f 3e 9b 52 ff 3d
       0.30193517 0.40058884 0.28118965 0.124669276
0000a0 6e 9a e6 3d b7 30 60 3e cb c9 e4 3e 22 36 6c 3e
       0.11259924 0.21893583 0.44685206 0.23067525
0000b0 f4 fd db 3e d4 b6 10 3e 74 df e1 3e cf 1b e2 3e
       0.42967188 0.14132243 0.44115794 0.4416184
0000c0 c6 e1 ef 3d 2c 95 f1 3d e2 80 8b 3e 25 26 9a 3e
       0.11712985 0.117960304 0.27246767 0.30107227
0000d0 69 67 39 3e bd cb c8 3e 1a 33 aa 3e d5 12 b2 3d
       0.18105854 0.3921794 0.33242112 0.08694998
0000e0 5e 50 c3 3e c7 54 d8 3e 1d 2c 22 3e f8 1f c8 3e
       0.38147253 0.4225218 0.1583714 0.3908689
0000f0 24 fd f0 3e a2 0e 31 3e af a5 05 3e 45 5f 98 3e
       0.4706813 0.17290738 0.13051485 0.29760185

6.running_var f4 [64]
000000 43 d7 67 3e 1b 9e 82 3e b5 10 97 3e ae 8e cb 3e
       0.2264071 0.2551125 0.29504934 0.39757293
000010 c8 28 69 3e ae 0a 33 3e be 2d 3c 3e 3d b7 f9 3e
       0.22769463 0.17484543 0.18376824 0.48772612
000020 a2 9e 2f 3e 63 d8 7a 3e d5 de 2c 3e d0 df 63 3e
       0.17150357 0.24496607 0.16881879 0.22253346
000030 91 a2 36 3e 33 2c 99 3e 2a bf 4e 3e 69 23 ac 3e
       0.17835452 0.29916534 0.20190111 0.33620766
000040 27 e6 88 3e e6 f7 bd 3e 2c 65 17 3e ee 3f 2c 3e
       0.26738092 0.37103194 0.14784688 0.16821262
000050 bd 74 44 3e 8f 32 86 3e e8 0d ad 3e 6a 3c c8 3e
       0.19185157 0.26210448 0.33799672 0.39108592
000060 eb 3f c8 3e a5 65 a6 3e 81 ee 85 3e ef fb 9d 3e
       0.39111266 0.32499424 0.26158527 0.30856273
000070 cd b9 8c 3e 15 59 d1 3e 2e 6b 8a 3e 5d 51 45 3e
       0.27485505 0.40888277 0.27034897 0.19269319
000080 11 03 22 3e 98 4a 96 3e be 47 e9 3e 96 92 9c 3e
       0.15821482 0.29353786 0.45562547 0.30580586
000090 0a c1 0a 3e b2 f1 a0 3e af f2 8f 3e 99 70 7d 3e
       0.13550201 0.314344 0.2811484 0.24749984
0000a0 40 5f 65 3e 33 43 7f 3e 31 f5 f5 3e 75 73 56 3e
       0.22399616 0.24927978 0.4803863 0.20942481
0000b0 a2 3d a3 3e 2a c2 68 3e 7e 0d b7 3e e7 55 b2 3e
       0.3188296 0.22730318 0.3575248 0.34831163
0000c0 03 f8 09 3e 9d 48 7e 3e 92 dc 0e 3e a5 90 a1 3e
       0.13473515 0.24832387 0.13951328 0.31555668
0000d0 6a b9 80 3e fa 80 91 3e 5a 6b 9c 3e 72 cd 19 3e
       0.2514146 0.28418714 0.30550653 0.15019777
0000e0 7c 94 b5 3e 45 05 9e 3e 26 82 35 3e 7a cc 8e 3e
       0.35464847 0.30863395 0.17725429 0.27890378
0000f0 46 4f 45 3e 35 d0 9d 3e 9f 20 76 3e d7 11 8d 3e
       0.19268522 0.30822912 0.24035881 0.27552673

8.weight f4 [32, 64]
000000 01 19 13 be 89 81 67 bd a0 75 08 bd 55 67 c7 3d
       -0.14365007 -0.05652002 -0.0333153 0.09736506
000010 23 bf f6 bd 75 ff 85 3d e5 92 f9 bd 52 b3 c4 3d
       -0.12048175 0.06542865 -0.12186221 0.09604515
000020 1d ba e3 bd cd 72 b2 3d 12 8e 01 be 25 94 97 3a
       -0.11119483 0.08713303 -0.12651852 0.0011564536
000030 63 74 5c 3c 5f 38 72 bd ff 7a 19 3d 35 a7 9c 3d
       0.013455483 -0.05913579 0.037470814 0.0764908
000040 9f 46 44 bc fb 4d 5b 3d 8f f1 40 3d 27 de 35 ba
       -0.011979728 0.053541165 0.04710537 -0.00069377053
000050 0a 86 72 39 54 c9 19 be 8e af af bb e9 43 ea bd
       0.00023128852 -0.15018207 -0.005361504 -0.11438734
000060 af d0 a8 bd 26 e9 61 bd 3f 64 34 bd 72 84 c4 3d
       -0.08242928 -0.05515399 -0.044040915 0.095955744
000070 ed 00 84 bd 67 56 af 3d b8 db 1f 3d 2d fd 3a bd
       -0.06445489 0.08561402 0.0390279 -0.045651603
000080 38 66 a7 bc bd 8f 35 bd 72 50 a8 bc 39 34 82 3d
       -0.020434484 -0.044326533 -0.020546172 0.06357617
000090 a3 5c b4 3c ae 2b d7 bd fd 6f d0 3a 80 52 4c bd
       0.022016829 -0.10506378 0.0015902516 -0.049883366
0000a0 d8 4f 2e be 93 95 4f 3d 25 8b b6 bd 8b 50 1f bc
       -0.17022645 0.050679754 -0.089132585 -0.009723793
0000b0 0b 32 21 bd 72 af 74 bd 82 a3 a7 3d c2 89 c8 3c
       -0.039354365 -0.05973763 0.081854835 0.02447975
0000c0 fb cf 55 3c 66 d4 b8 bd 37 80 8f 3d 00 56 f9 bc
       0.013050075 -0.09024887 0.07006877 -0.030436516
0000d0 b5 61 8d bd 7f 2d ec 3c b6 6d b9 3c a9 32 c5 bc
       -0.06903402 0.028830288 0.022635322 -0.024072008
0000e0 9c 77 85 3d d5 8a 48 3d ea d5 21 bd ef b1 aa bd
       0.06516954 0.048960526 -0.039510645 -0.083347194
0000f0 c7 22 d9 bd 41 f2 dc bd 85 a0 e2 bd 9c ae ae bd
       -0.106023364 -0.10788394 -0.11065773 -0.08529398
000100 f1 38 26 be 38 be 5a 3d 83 fe 0c 3d 5f 5f 9e bd
       -0.16232659 0.053404063 0.03442241 -0.07733034
000110 d4 e1 83 bd 50 26 cb 38 a3 a1 91 bb e5 cd e0 bd
       -0.06439558 9.6869306e-05 -0.0044443174 -0.10976771
000120 c3 31 d2 bd 2f c7 7e bd db 6d 6d 3d d4 82 ce 3b
       -0.102633975 -0.062201675 0.057966094 0.006302217
000130 b5 76 ec 3c 2b 5f d7 bd ce 58 20 bd 7f fa 0a 3d
       0.028865198 -0.10516199 -0.03914719 0.033930298
000140 34 7f 62 bd cb 37 96 bd e6 95 91 3c 3f 81 e5 bd
       -0.05529709 -0.073348604 0.017771672 -0.11206292
000150 d0 d7 8b bd 19 6b e5 3d f3 3b 60 bc 9c c9 e4 bd
       -0.06828272 0.11202068 -0.013686168 -0.111712664
000160 d0 9e bb bd 09 58 e5 bc 5a 46 16 3c d7 f0 d3 3d
       -0.091611505 -0.02799608 0.009172047 0.10348671
000170 03 33 a3 bd 66 66 0e 3d b5 e6 03 be d4 16 88 3d
       -0.07968714 0.034765624 -0.12880976 0.06644979
000180 79 08 17 bd 7f 75 bd bd 12 6c 50 3d 77 5f bf bc
       -0.036873315 -0.09250926 0.050884314 -0.02336095
000190 7a cd 07 3c d3 fe ec 3d 4d 7a 8f 3c 36 8b 66 bd
       0.0082887355 0.11572041 0.017514372 -0.056285106
0001a0 77 e2 5f 3c de 3e 28 3d d5 2c 0b 3d 49 85 f2 bc
       0.013664833 0.04107558 0.033978302 -0.029604571
0001b0 47 94 9a bd a9 0b 57 bd 78 be f6 bd c1 4b e0 3d
       -0.07547813 -0.052501354 -0.12048048 0.10951949
0001c0 58 b6 bb 3d 06 10 04 be 24 08 e6 bc bc 2b 4b 3d
       0.09165639 -0.12896737 -0.028080054 0.049602255
0001d0 4c be 84 ba 4c 88 8c 3c 4d a4 d8 bc 2f ea b0 bd
       -0.0010127514 0.017154835 -0.026445532 -0.08638417
0001e0 5e cc b9 bc 81 5f e0 3c 8b 8d d3 bd 71 f3 a1 bc
       -0.022680458 0.02738929 -0.103297316 -0.019769402
0001f0 e1 89 f8 bd f9 75 6a 3d 09 87 73 bd 63 b1 33 bd
       -0.12135673 0.057241414 -0.05945495 -0.04387034
000200 cb 72 23 bb 38 3d bb bd b1 44 61 3d c2 5c 11 be
       -0.0024940248 -0.09142536 0.05499715 -0.1419554
000210 20 ce ff bd 0d 0a 83 bd 61 ed 24 bd 10 9f b1 3c
       -0.12490487 -0.063984014 -0.040265445 0.021682292
000220 74 78 4b 3c 65 38 7e bd 48 49 e3 bb 57 a5 c5 3d
       0.012418855 -0.0620655 -0.006936226 0.09650677
000230 4a b1 10 be b5 ea ad 3d b1 50 89 3d e6 ee 45 bd
       -0.1413013 0.084920324 0.06704844 -0.048323534
000240 f6 21 c8 3d b9 c3 17 bd 6d 38 08 3d 18 f6 24 bd
       0.097721025 -0.03705189 0.033256937 -0.040273756
000250 ac cb fe bd 6f b2 94 3d 6e 05 7b 3d 78 0b 9f 3d
       -0.12441191 0.07260596 0.061284475 0.07765859
000260 6e 22 12 be c8 74 a8 bb 20 d2 87 bd a5 3d e4 bc
       -0.14270946 -0.0051408745 -0.06631875 -0.027861426
000270 93 12 4d 3d 62 cb 31 bd ce 90 a3 3d 78 c3 80 3d
       0.050066542 -0.04340685 0.07986604 0.06287283
000280 78 23 bb 3c 3f c5 48 3c c0 c8 ae bc 95 c4 6d bd
       0.022844061 0.012254058 -0.02133596 -0.058048803
000290 ee 6e 3a bc 4b c2 52 bc 33 cf b8 bd 15 e6 33 bd
       -0.011378987 -0.012863706 -0.09023895 -0.043920595
0002a0 f9 9b ec 3d 2e f9 89 bc 51 9d 11 bd 05 f2 c5 bd
       0.11553187 -0.016842451 -0.03555042 -0.09665302
0002b0 27 09 f9 3d a2 5f 40 bd 70 50 ab 3d cb 6a 3b 3d
       0.12159949 -0.046966203 0.083649516 0.045756143
0002c0 3e a5 14 be 68 50 f6 bc 06 25 a6 bd c7 3b f1 bb
       -0.1451616 -0.030067638 -0.081125304 -0.0073618623
0002d0 ab f1 73 3d 9c 57 3f 3d fa e2 dd bd fd 79 4a 3b
       0.059556644 0.04671441 -0.10834308 0.0030895465
0002e0 df e1 03 be 80 07 ea bd b6 ee 94 3c 21 94 83 bd
       -0.12879132 -0.11427212 0.018180232 -0.06424738
0002f0 38 23 03 ba c6 31 9b bd c1 4c 9a 3d af ba 01 3b
       -0.00050025014 -0.07577853 0.07534171 0.001979511
000300 31 d0 dd 3d 98 fd c5 3d 2d 41 f6 3c bc e1 85 3d
       0.10830725 0.0966751 0.030060375 0.06537196
000310 f3 d1 6b 3d c0 b1 19 3e 16 6b 36 3d 42 46 a4 3d
       0.05757327 0.15009212 0.04453572 0.08021213
000320 28 62 94 3d 55 74 ba 3d e2 65 66 bc 57 8a 0e bd
       0.07245284 0.0910422 -0.014062377 -0.0347999
000330 4b ef e9 bd 8c ee 73 bc 87 f0 ee 3d 5c 74 fe 3c
       -0.11422595 -0.014888417 0.11666971 0.031061344
000340 ec 8f 8e 3d 4a ee 6b bd b6 f0 33 3d c5 03 99 3c
       0.06961045 -0.057600297 0.04393073 0.018678555
000350 44 2d 8b 3d 50 f1 e3 3b a4 b9 46 bd d5 e2 e6 bd
       0.06795743 0.006956257 -0.048516884 -0.112737335
000360 aa 50 9f 3d a0 b1 08 bb 1f 13 34 bc 8f b4 8d bb
       0.07779057 -0.0020857826 -0.010990887 -0.004324503
000370 b2 c0 f2 bc 5e c7 87 3d b1 40 59 bc a1 75 54 bd
       -0.0296329 0.06629823 -0.013260053 -0.051869992
000380 40 98 c7 bd 2c 1e 79 3d 7d 01 f0 3b a5 6a c7 3c
       -0.09745836 0.06081979 0.007324396 0.024342844
000390 c4 34 f3 bd f1 01 fc 39 d0 6f 6d 3d fa 25 14 bd
       -0.118752986 0.00048066632 0.05796796 -0.03616903
0003a0 80 26 9a 3b 95 1b 0e 3e b8 5f 14 3d 21 ba 0f 3d
       0.0047042966 0.13877709 0.036224097 0.035089616
0003b0 1b bc ac 3d 54 50 51 3d 4e 52 ea bd 6e 7e c2 3b
       0.08434316 0.051101997 -0.114414796 0.0059354817
0003c0 21 12 01 3d 90 24 06 3e 4d 6a eb bd cf 26 17 3d
       0.03151143 0.13099885 -0.11494885 0.036902245
0003d0 1f 8d eb 3d b6 82 d7 3a 32 14 ff 3b 61 e2 e8 3b
       0.11501526 0.0016442153 0.00778439 0.0071070646
0003e0 d7 03 c6 3c d0 99 b2 bc 53 3d 29 bd 43 f7 9a bd
       0.024171753 -0.02180186 -0.04131825 -0.07566693
0003f0 08 b3 85 bd 63 9c 79 3d a4 ef 50 3c 55 fd 50 bd
       -0.06528288 0.060940158 0.012752447 -0.051022846

8.bias f4 [32]
000000 29 7e 3f 3e 91 8f e6 3d a2 89 0b 3c c9 68 4e be
       0.1870047 0.11257852 0.008516701 -0.2015716
000010 fb 92 28 bd cc 62 64 3d 9d 39 de bc 5f 0f 67 3e
       -0.041155796 0.055758283 -0.027127082 0.22564457
000020 a7 84 4f 3e ad 99 55 bd f7 90 c9 bd 84 0a a2 bd
       0.20265447 -0.05214851 -0.09842103 -0.07912162
000030 27 7c 1d be 7e d1 13 3e 28 3a 57 3e 4d ce 0b bc
       -0.15379392 0.14435384 0.21018279 -0.008533073
000040 2b 14 2f bd e7 2d 5c 3d aa 12 68 3d 8d f2 48 3e
       -0.042743843 0.053754713 0.056658424 0.19623776
000050 cd cf 1a bd 47 10 f2 3c a2 03 9d 3d fc c4 69 3d
       -0.03779583 0.029548777 0.076667085 0.057072625
000060 6f e2 93 3d 09 20 2b 3d c2 fb 15 3d 6f 46 25 3d
       0.07220923 0.041778598 0.036617048 0.040350374
000070 cd 13 1a bd 1b 10 a5 3d b3 87 4c 3e 11 57 69 3e
       -0.03761654 0.080597125 0.1997364 0.2278712

10.weight f4 [32]
000000 1e 59 7d 3f eb be 6e 3f dc 39 72 3f a8 d0 8f 3f
       0.9896411 0.9326007 0.94619536 1.1235552
000010 48 3d 85 3f d4 70 6e 3f e1 03 8e 3f 55 b6 75 3f
       1.0409327 0.9314091 1.1094934 0.9598134
000020 39 d5 77 3f 78 d7 89 3f d6 ec 8c 3f db 1f 8e 3f
       0.96809727 1.0768881 1.1009777 1.1103472
000030 cf c3 8e 3f df 7f 75 3f e8 7a 75 3f 3b 39 8e 3f
       1.1153506 0.9589824 0.95890665 1.1111215
000040 41 d1 8e 3f ba 9c 7b 3f c3 99 88 3f 69 ff 74 3f
       1.1157609 0.9828602 1.0671924 0.95702225
000050 dd 93 8d 3f 62 69 8e 3f 4b e3 71 3f 4c e2 82 3f
       1.1060749 1.112591 0.94487447 1.022531
000060 b0 1e 80 3f 3b 65 8e 3f 10 23 8f 3f 21 5a 8e 3f
       1.0009365 1.1124643 1.1182575 1.1121255
000070 65 66 74 3f 97 e3 70 3f 47 86 7f 3f 2b 05 7e 3f
       0.9546874 0.94097275 0.99814266 0.99226636

10.bias f4 [32]
000000 53 27 dd 3d f2 48 a0 3d 96 35 a2 3d 2e 13 f3 bd
       0.10798516 0.07826413 0.07920377 -0.118688926
000010 d3 93 b0 bd fe d3 ab 3d a3 e9 cb bd 6d 59 b0 3d
       -0.08621945 0.08390044 -0.09956672 0.086108066
000020 7c e5 96 3d 4e ce b6 bd 9b 97 b1 bd 6e 6f c4 bd
       0.073679894 -0.08926068 -0.086714946 -0.09591566
000030 18 1f d0 bd 05 24 b3 3d 35 6e b7 3d f6 17 df bd
       -0.10162181 0.087471046 0.08956567 -0.10893242
000040 e9 73 d8 bd 64 6f cb 3d 40 a1 2c bd 99 a8 b9 3d
       -0.10568983 0.099333555 -0.042145967 0.090653606
000050 2f 27 ba bd 0c ad e6 bd 0f 2b c4 3d ad ad f9 3d
       -0.09089505 -0.11263475 0.09578525 0.12191329
000060 7b 9e f7 3d f4 c6 c3 bd de f5 da bd 79 98 cb bd
       0.120907746 -0.09559432 -0.10691427 -0.09941191
000070 1f bc a5 3d 77 04 ae 3d 5a 25 ee 3d 53 dc dc 3d
       0.08092522 0.08496945 0.11628218 0.10784211
